Twilight_Image Enhancement Modules/Bread/checkpoints/FuseNet_NFM_297.pth (torch, 892959 bytes, 56 tensors)

inc.conv.conv.0.weight f4 [32, 3, 3, 3]
0	0xbdb478f3	-0.08812132
1	0xbe0e6598	-0.13905942
2	0xbce5b284	-0.028039224
3	0xbc8d5cb7	-0.017256124
4	0x3c83f592	0.016108308
5	0x3e597936	0.21237645
6	0x3e048fd0	0.12945485
7	0x3e8d8354	0.27639258
8	0xbd6d89fb	-0.057992917
9	0xbe4f73a9	-0.20258965
10	0x3e77270e	0.24135992
11	0xbe86a098	-0.26294398
12	0xbb6813a4	-0.0035412097
13	0xbe4daa71	-0.2008455
14	0xbe3a35e2	-0.18184617
15	0xbd1cd07e	-0.03828477
16	0x3ecb3259	0.3968685
17	0xbe09cff0	-0.13458228
18	0xbd188fd5	-0.037246544
19	0x3dd467e2	0.103713766
20	0xbe990dcd	-0.29893342
21	0x3e4273d2	0.18989494
22	0xbdad1c7a	-0.08452697
23	0xbd514aa6	-0.05109658
24	0xbdebb95d	-0.115099646
25	0x3e377652	0.1791623
26	0x3e520b90	0.20512223
27	0xbd82260b	-0.06354912
28	0x3dea407b	0.1143808
29	0xbcfd5dd5	-0.030928532
30	0x3db34d39	0.087549634
31	0x3d194a01	0.03742409
32	0xbe509d03	-0.20372395
33	0x3d135312	0.035967894
34	0xbd499491	-0.04921395
35	0x3d588c04	0.052867904
36	0x3db1e6a7	0.086865716
37	0x3e019227	0.12653409
38	0xbd52709e	-0.05137693
39	0x3e3e61b2	0.18591955
40	0x3e09fdbd	0.134757
41	0xbe844373	-0.2583271
42	0x3e0ac681	0.13552286
43	0x3d8e19b6	0.06938498
44	0xbd8c2699	-0.068432994
45	0x3e08239d	0.13294835
46	0xbe139287	-0.14411364
47	0x3dd269ad	0.10274062
48	0x3d24ef70	0.040267408
49	0x3e2d0359	0.16895808
50	0xbe70fd8e	-0.23534223
51	0xbe3dcc01	-0.18534853
52	0xbdad8937	-0.08473437
53	0x3d7a0f38	0.06104967
54	0xbd98112e	-0.07425152
55	0x3e22d3b0	0.15901065
56	0xbdcd12ad	-0.10013328
57	0x3e42b8f0	0.1901586
58	0x3db1b021	0.08676172
59	0x3e27ae67	0.16375123
60	0x3da8e8af	0.08247506
61	0x3c244058	0.010025106
62	0xbc8ce99e	-0.017201241
63	0xbe534c3f	-0.20634554
64	0xbd2e7df6	-0.042600594
65	0xbe0f3c7d	-0.13987918
66	0xbe0c9068	-0.13726962
67	0x3e596687	0.21230517
68	0x3e1ecca4	0.15507752
69	0x3dffb241	0.12485171
70	0xbd6ffef1	-0.05859274
71	0xbe4141e2	-0.18872789
72	0xbdf4ed60	-0.11959338
73	0xbb732539	-0.0037101044
74	0xbe3222f2	-0.17396143
75	0x3cac9e0f	0.021071462
76	0x3dbc5677	0.09196179
77	0x3e4c9679	0.19979276
78	0x3e17aabd	0.14811225
79	0x3dd7a513	0.10529532
80	0xbd1939e6	-0.037408732
81	0x3cab81fd	0.020936007
82	0xbd5d19d3	-0.053979706
83	0xbe27cec9	-0.16387476
84	0x3e4746e9	0.19460644
85	0xbe4cba60	-0.19992971
86	0x3cbff664	0.023432918
87	0x3d8acea0	0.06777692
88	0xbc805486	-0.015665304
89	0x3e498879	0.19680966
90	0xbd9fc0ec	-0.07800469
91	0x3e3d22e0	0.18470335
92	0x3e10e3ab	0.14149348
93	0xbc297576	-0.010342946
94	0xbcd5331b	-0.026025346
95	0xbd1664bd	-0.036717165
96	0x3b8f496c	0.0043727662
97	0x3cef5b29	0.029218273
98	0x3e7d4152	0.24731949
99	0x3dcfdc3c	0.10149428
100	0x3e3ac1a5	0.18237932
101	0x3d8289e6	0.06373958
102	0x3d701c5a	0.05862079
103	0xbc944d1b	-0.018103173
104	0x3d9c575f	0.07633852
105	0x3c6b94db	0.014378752
106	0xbda5665b	-0.080761634
107	0xbd9e7d9a	-0.077388
108	0x3d9603fe	0.0732498
109	0x3d3e544f	0.04646712
110	0xbdad11f9	-0.08450694
111	0xbe25584a	-0.16146961
112	0xbdc12cb1	-0.09432352
113	0x3e58f80a	0.2118837
114	0xbdb055a1	-0.086100824
115	0xbd3c1964	-0.045922652
116	0xbe107d0f	-0.14110206
117	0xbd86a23c	-0.065739125
118	0xbda18a16	-0.07887666
119	0x3e52573d	0.20541091
120	0xbd983c49	-0.074333735
121	0x3d768230	0.06018275
122	0x3e5949af	0.21219514
123	0x3e68cf55	0.22735341
124	0xbe18b2ba	-0.14911929
125	0xbb683e32	-0.0035437462
126	0xbe2479d6	-0.16062102
127	0xbd8b056f	-0.06788146
128	0x3db5e389	0.088812895
129	0xbe4aecab	-0.19816844
130	0xbce66af6	-0.028127175
131	0xbdd61dd6	-0.104549095
132	0x3d21156c	0.03932707
133	0x3dbdd77c	0.09269616
134	0x3df7ea4a	0.12105234
135	0xbe2327bb	-0.15933125
136	0x3d0329b8	0.032022208
137	0x3e1964a1	0.14979793
138	0xbc8d91b4	-0.01728139
139	0xbe1bedb3	-0.15227394
140	0xbe4a92dd	-0.19782586
141	0x3c563796	0.013074776
142	0x3e4dd17d	0.20099445
143	0x3e05d5f8	0.13069904
144	0xbd442eb6	-0.04789611
145	0x3d3b3833	0.045707893
146	0xbe703638	-0.23458183
147	0x3ddffdb4	0.10937062
148	0x3e4fc5ab	0.20290248
149	0x3e25f67a	0.16207305
150	0xbc7383f0	-0.014862999
151	0x3e838867	0.25690004
152	0x3e01c796	0.12673792
153	0xbded9f09	-0.11602599
154	0x3a8aae4d	0.001058051
155	0xbe5aa55f	-0.21352147
156	0x3de37706	0.11106686
157	0x3e2b40ca	0.16723934
158	0xbe06059d	-0.13088079
159	0x3e1a0532	0.15041044
160	0x3d3ce422	0.046116002
161	0x3e45f194	0.19330436
162	0xbd9419cd	-0.072314836
163	0xbe18a345	-0.14906032
164	0x3e1b1e77	0.1514834
165	0x3d745444	0.059650674
166	0x3cb9bb95	0.022672454
167	0xbd0b9ca1	-0.03408492
168	0x3de7497d	0.11293314
169	0x3ded06c8	0.11573559
170	0xbe0c91db	-0.13727514
171	0x3e1a74b3	0.1508358
172	0xbe595ddf	-0.21227215
173	0x3d07c95b	0.033151012
174	0x3ce74fd6	0.02823631
175	0xbde71a38	-0.11284298
176	0xbc07bb2e	-0.008284373
177	0x3e4d80a4	0.20068604
178	0xbdf1a1d9	-0.11798448
179	0xbe8484d8	-0.25882602
180	0xbbe9b3fd	-0.007132052
181	0x3e30feab	0.17284648
182	0xbe55961b	-0.20858042
183	0x3e6e9b19	0.23301353
184	0xbc515c87	-0.012778408
185	0xbe3fdfbb	-0.1873769
186	0x3ca6e3f4	0.020372368
187	0x3e425e6c	0.18981332
188	0xbe0b4878	-0.13601863
189	0xbeb09d5d	-0.3449506
190	0x3e0642e9	0.13111462
191	0x3d02ecf7	0.03196427
192	0x3cae0585	0.021242866
193	0xbd7b81c5	-0.061403055
194	0xbd907a12	-0.07054533
195	0xbda9bcd4	-0.08287969
196	0xbe13879a	-0.14407197
197	0xbe55b1fb	-0.20868675
198	0xbeb32a1f	-0.34993073
199	0xbe4c3b5e	-0.19944522
200	0xbce74681	-0.028231861
201	0xbe891c16	-0.2677924
202	0x3e56cd18	0.20976675
203	0x3e396e6d	0.1810853
204	0x3e093bcb	0.13401715
205	0xbea2bf99	-0.31786802
206	0xbe09f9c3	-0.13474183
207	0xbde3ccea	-0.11123069
208	0x3cce54d7	0.02518694
209	0x3ddeb721	0.10874773
210	0xbe18cb68	-0.14921343
211	0x3c3fbd57	0.011702857
212	0xbe099342	-0.1343508
213	0xbe27c8a6	-0.16385135
214	0xbda53efe	-0.080686554
215	0xbd1efa00	-0.038812637
216	0xbc8deefe	-0.017325874
217	0x3e2c3b3d	0.16819473
218	0x3d472170	0.048615873
219	0xbba11190	-0.0049154237
220	0x3d737d3b	0.0594456
221	0xbb1a3f64	-0.002353632
222	0xbe361638	-0.17781913
223	0x3c6068dd	0.013696876
224	0x3e0e6957	0.13907371
225	0x3cc0eaa4	0.023549385
226	0xbe0961d8	-0.1341623
227	0x3e232f4a	0.15936008
228	0x3e037dbc	0.12840933
229	0x3cc5de4a	0.024153847
230	0x3e60cda8	0.21953452
231	0x3dff383c	0.12461898
232	0xbd8b079c	-0.06788561
233	0xbbbc5e2c	-0.005748531
234	0xbe093daa	-0.13402429
235	0x3e44870c	0.19192141
236	0xbc0da565	-0.00864539
237	0xbd63fa0e	-0.055658393
238	0x3d8ea9f3	0.06966009
239	0x3dc13257	0.0943343
240	0xbe014826	-0.12625179
241	0xbe504783	-0.2033978
242	0xbe375a77	-0.17905603
243	0xbd81bf38	-0.063353
244	0x3e617194	0.22015983
245	0xbd615cf2	-0.05502028
246	0x3de12401	0.10993195
247	0xbe4e15b6	-0.2012547
248	0xbe693843	-0.22775368
249	0xbc48e7c3	-0.012262288
250	0x3cf1134c	0.029428147
251	0x3e4ef86f	0.20211957
252	0xbe032973	-0.1280878
253	0x3da1726f	0.078831546
254	0xbe31735e	-0.17329165
255	0x3e5146ab	0.20437114

inc.conv.conv.0.bias f4 [32]
0	0x3d7896de	0.060690753
1	0x3ca29535	0.019846538
2	0xbe4f3dd4	-0.2023843
3	0x3c261636	0.010137131
4	0x3e4ff821	0.20309497
5	0x3c5482af	0.0129706105
6	0x3e419a32	0.18906477
7	0x3db06987	0.08613878
8	0xbe8818c6	-0.265814
9	0x3d4c92ee	0.04994481
10	0xbd914679	-0.0709352
11	0x3e2373b7	0.1596211
12	0xbdc43cf9	-0.09581942
13	0xbe4d21da	-0.20032445
14	0xbc5d05dd	-0.013490167
15	0xbc8bacbe	-0.017050143
16	0x3d3603d3	0.04443724
17	0x3d069e63	0.032865893
18	0xbe70a063	-0.23498683
19	0xbe1fb40e	-0.15596029
20	0x3d52526a	0.051348127
21	0x3d475299	0.048662756
22	0x3e11ebc0	0.14250088
23	0x3ddc0001	0.10742188
24	0x3e207b9b	0.15672152
25	0xbaf518c6	-0.00186994
26	0xbea1678e	-0.31524318
27	0x3e3a9302	0.18220142
28	0x3daaa041	0.08331347
29	0x3cad2ff9	0.02114104
30	0x3d1d191b	0.03835402
31	0x3d8052b8	0.06265777

inc.conv.conv.3.weight f4 [32, 32, 3, 3]
0	0x3d7380e6	0.0594491
1	0x3db64d10	0.08901417
2	0x3d53b4b7	0.051686015
3	0xbd7677d1	-0.06017286
4	0x3c574167	0.013138152
5	0x3e03f25f	0.12885426
6	0xbe1b746e	-0.15181133
7	0xbdfba80e	-0.12287913
8	0x3b654b31	0.0034987445
9	0xbbbf4e71	-0.0058382084
10	0xbd6ea41d	-0.05826198
11	0xbcfa9fd4	-0.03059379
12	0x3c27558f	0.01021327
13	0xba5254e7	-0.00080235157
14	0x3d86baf1	0.06578625
15	0xbcb73e0e	-0.022368457
16	0x3d972040	0.07379198
17	0xbc20183f	-0.009771406
18	0xbcbb4b3f	-0.022863029
19	0x3d6f8e03	0.058485042
20	0x3c8159c9	0.015789883
21	0x3e033387	0.12812625
22	0x3e4e20e6	0.20129737
23	0x3dcccc8b	0.09999951
24	0xbd8620fc	-0.0654926
25	0xbd09a887	-0.033607986
26	0xbbf00b66	-0.0073255775
27	0x3b06919d	0.002053357
28	0x3b9cda10	0.0047867373
29	0xbb9e0fb7	-0.0048236507
30	0x3c8ccbb3	0.017186975
31	0x3cd33506	0.02578212
32	0x3c46ab02	0.012125732
33	0x3d8a6091	0.067567
34	0xb91be12b	-0.00014865834
35	0x3d2b6fa0	0.0418545
36	0xba221ce8	-0.0006184117
37	0x3d852c41	0.065025814
38	0x3ce6421d	0.028107697
39	0x3d0aa307	0.03384688
40	0xbd6b37ae	-0.057426147
41	0xbe2ffb84	-0.1718579
42	0xbb2970a5	-0.0025854495
43	0xbb97ceb9	-0.0046327976
44	0xbe015177	-0.12628733
45	0x3d44ed51	0.048077885
46	0x3dc53085	0.09628395
47	0x3dac541e	0.084144816
48	0x3c0f5e18	0.008750461
49	0x3daf7b2e	0.085684165
50	0xbc226ff3	-0.009914386
51	0xbc92ea0b	-0.017933866
52	0x3c3dd0ab	0.011585395
53	0x3d6a4d2c	0.057202503
54	0xbd365d23	-0.044522416
55	0x3d657443	0.05601908
56	0x3d0dcfe9	0.034622107
57	0xbd49be71	-0.049253885
58	0xbbebb93a	-0.0071937116
59	0x3d2d40be	0.04229807
60	0xbe165c45	-0.14683636
61	0xbd91af99	-0.07113571
62	0x3da36f51	0.07980216
63	0xbe5d7998	-0.21628416
64	0xbe869016	-0.26281804
65	0xbe609a00	-0.21933746
66	0xbe73a539	-0.23793496
67	0xbe66a61d	-0.22524305
68	0xbde773d8	-0.11301392
69	0xbe5044d7	-0.2033876
70	0xbea79a52	-0.32734925
71	0xbe3bfb0c	-0.18357486
72	0xbc53678a	-0.012903104
73	0xbd0a9a99	-0.033838842
74	0x3d2469ea	0.04014007
75	0x3e514604	0.20436865
76	0x3e0cb07d	0.137392
77	0x3e158512	0.14601544
78	0x3e05a38d	0.13050671
79	0x3db01c4d	0.08599148
80	0x3c7fb800	0.015607834
81	0x3d56ad94	0.05241163
82	0x3d3b67cb	0.04575328
83	0x3d757d4d	0.05993395
84	0xbd134683	-0.035955917
85	0x3cb38c86	0.021917593
86	0xbd21bde8	-0.03948775
87	0x3d5259e5	0.05135526
88	0xbd58c65f	-0.052923556
89	0x3d6ab4bc	0.057301268
90	0x3b398e0d	0.0028313429
91	0x3d050001	0.032470707
92	0xbc3b375e	-0.011426775
93	0xbd1e99ec	-0.03872101
94	0x3cbbf20a	0.022942562
95	0xbd368fce	-0.044570737
96	0xbcb16704	-0.021655567
97	0x3d8d2d51	0.06893409
98	0x3d3147de	0.04328143
99	0xbd558910	-0.052132666
100	0xbc96ea20	-0.018422186
101	0xbc3f9f54	-0.011695702
102	0xbc527821	-0.012846024
103	0x3d06adf8	0.032880753
104	0x3d370efd	0.04469203
105	0xbde40117	-0.1113302
106	0x3cc5b266	0.024132919
107	0x3d982445	0.07428793
108	0xbd8a4383	-0.06751158
109	0xbd9f415a	-0.07776137
110	0x3b84293c	0.004033236
111	0xbdc09a85	-0.09404472
112	0x3d26113a	0.040543772
113	0x3c9a87b8	0.018863544
114	0x3d492dc5	0.049115915
115	0x3d13c6ea	0.03607837
116	0x3ba2b8bb	0.0049658692
117	0x3e0a458e	0.13503096
118	0x3d830c26	0.063988015
119	0x3d544f82	0.051833637
120	0xbcab399c	-0.020901494
121	0x3d08082f	0.03321093
122	0xbc9d03a6	-0.019166779
123	0x3d9b9cae	0.07598244
124	0x3cf77810	0.030208617
125	0xbdc9b638	-0.098492086
126	0x3cb91c5f	0.022596536
127	0xbcce0db7	-0.025153024
128	0xbe0f007d	-0.1396503
129	0xbd0a2d53	-0.03373463
130	0xbd51eb7d	-0.05124997
131	0xbd959142	-0.07303096
132	0xbcf543f8	-0.029939637
133	0x3baa47eb	0.0051965616
134	0xbb478e9b	-0.003044999
135	0x3c0d2f87	0.008617288
136	0x3bd54447	0.0065083834
137	0xbce08c30	-0.027410597
138	0xbca470c3	-0.0200733
139	0xbd0f5bdc	-0.034999713
140	0x3c76775e	0.015043108
141	0xbbf6b3e2	-0.007528768
142	0x3cb671de	0.022271093
143	0x3c5891bb	0.013218339
144	0x3bb799f7	0.005603071
145	0xbe05db24	-0.13071877
146	0xbe1d0e39	-0.15337457
147	0x3d8dac6a	0.06917651
148	0x3de55267	0.111973576
149	0x3d5f734f	0.054553326
150	0x3c9a2b59	0.018819498
151	0x3d08fb42	0.033442743
152	0x3d198b7a	0.03748653
153	0xbc4d602d	-0.012535137
154	0xbdb7cacb	-0.089742266
155	0xbd4ec6f2	-0.050482698
156	0xbc48b89f	-0.012251048
157	0x3d69141a	0.056903936
158	0xbd37605e	-0.044769637
159	0x3d917d35	0.071039595
160	0xbb3ba70a	-0.0028633499
161	0x3bb879ef	0.00562977
162	0x3d9ccaff	0.07655906
163	0x3da4d148	0.0804773
164	0xbd0906bb	-0.033453684
165	0xbc02f4a5	-0.007992898
166	0x3d8243db	0.06360599
167	0xbd3a09a1	-0.04541934
168	0x3cd75c9c	0.026289277
169	0x3d46f935	0.048577506
170	0x3cfd11ec	0.030892335
171	0x3c4973ec	0.012295704
172	0x3cfb4978	0.030674681
173	0xbd1055f8	-0.035238236
174	0x3d48626b	0.048921984
175	0xbcc5e4a3	-0.024156874
176	0xbcd0397f	-0.025418041
177	0xbca98613	-0.020693814
178	0x3d70378a	0.058646716
179	0xbd6133d3	-0.054981064
180	0xbe3b22fe	-0.18275067
181	0xbe22f832	-0.15914991
182	0xbe488636	-0.19582447
183	0xbd9ff201	-0.078098305
184	0xbc8d7693	-0.017268455
185	0x3bb95c64	0.005656766
186	0x3b58a83d	0.0033059262
187	0x3d7eec25	0.062236924
188	0x3df0ffed	0.11767564
189	0xbd170f7d	-0.036880005
190	0x3c68e66a	0.014215091
191	0xbe13ca9d	-0.1443276
192	0x3d9fbe2f	0.077999465
193	0xbdca1a0d	-0.0986825
194	0xbe007e8f	-0.12548278
195	0x3dd14484	0.102181464
196	0xbcb538a7	-0.02212174
197	0xbe40cb02	-0.18827441
198	0xbd738aee	-0.059458666
199	0xbd246037	-0.04013082
200	0xbd9f58fc	-0.07780644
201	0xbe9232b4	-0.28554308
202	0x3cded99b	0.027203372
203	0xbdd0221a	-0.10162754
204	0xbe0acf4f	-0.13555644
205	0xbe4cbe75	-0.19994529
206	0xbd9009e0	-0.070331335
207	0xbda581d0	-0.080814004
208	0xbd936955	-0.07197825
209	0xbcd602d2	-0.026124392
210	0xbd05b4d1	-0.032643143
211	0xbc6e0f7d	-0.01453006
212	0x3cdde312	0.027085815
213	0xbd166916	-0.03672131
214	0xbd603cca	-0.054745473
215	0xbb8bd569	-0.004267384
216	0xbca81672	-0.020518515
217	0xbc0cc0c7	-0.008590884
218	0xbccbcb4d	-0.024877215
219	0xbc86085a	-0.016361404
220	0xbc88fbf6	-0.016721707
221	0xbd600019	-0.054687593
222	0x3be77a11	0.007064112
223	0x3d3b1e0c	0.04568295
224	0x3c8f60fc	0.0175023
225	0x3d3abfbb	0.045593005
226	0x3c2e5ad6	0.010641774
227	0xbda0095b	-0.078142844
228	0x3da6ad2f	0.08138501
229	0x3dcee2a4	0.10101822
230	0x3d64be6a	0.055845656
231	0xbdafbcda	-0.085809425
232	0xbca92feb	-0.020652732
233	0x3d064041	0.03277612
234	0x3e2ea1c3	0.17053895
235	0x3e05db84	0.1307202
236	0x3d850be7	0.06496411
237	0x3df81568	0.12113458
238	0x3daffce9	0.08593161
239	0x3b9717a3	0.004610972
240	0x3e9ec8be	0.3101253
241	0x3e3b933e	0.18317887
242	0x3e4c45c1	0.19948484
243	0xbd165a50	-0.036707222
244	0xbcdbe424	-0.026842184
245	0xbdb20e47	-0.086941294
246	0x3d16c849	0.0368121
247	0x3ce62dcc	0.02809801
248	0x3cbf582a	0.02335747
249	0xbc1c4d4e	-0.009539915
250	0xbd22fad2	-0.039789982
251	0xbd7b39a6	-0.061334275
252	0x3d8f1048	0.06985527
253	0xbe2118a6	-0.15732059
254	0xbebd1f01	-0.36937717
255	0x3e27415a	0.16333523

inc.conv.conv.3.bias f4 [32]
0	0xbd6f98a8	-0.058495194
1	0x3d127c1a	0.035762884
2	0xbc950e64	-0.018195339
3	0xbd90aa09	-0.07063682
4	0x3d3406f3	0.04395194
5	0x3cd39c99	0.025831508
6	0x3b9541da	0.0045549693
7	0xbcaae6e2	-0.020862047
8	0xbc64c189	-0.013962158
9	0x3cb8f1b5	0.022576192
10	0x3d88db3b	0.0668244
11	0x3d9c9c24	0.07646969
12	0x3d272e56	0.040815674
13	0x3c656691	0.0140015045
14	0x3d57759f	0.052602407
15	0x3d85f626	0.0654109
16	0xbce9ec6e	-0.028555121
17	0x3d902f6d	0.07040296
18	0x3d45f7b5	0.048331935
19	0x3d74c17d	0.059754837
20	0xbccb5962	-0.024822894
21	0x3cd620c3	0.026138669
22	0xbc88e762	-0.016711894
23	0x3cb924f3	0.022600627
24	0xbc9c5c7d	-0.01908707
25	0x3d972170	0.073794246
26	0xbd1639b7	-0.036676135
27	0x3d96bc75	0.07360164
28	0xbcbe16ed	-0.023204291
29	0x3d3ad1f2	0.045610376
30	0x3e09697a	0.13419142
31	0xbce5a910	-0.028034717

inc.attention.0.ca.0.weight f4 [4, 32, 1, 1]
0	0xbe386d4f	-0.18010448
1	0x3d5992ee	0.05311864
2	0xbe43a838	-0.19107139
3	0xbd7beecd	-0.061507035
4	0x3e7527a9	0.2394091
5	0xbe0cbfa7	-0.13744985
6	0xb98ac495	-0.00026467876
7	0xbd8e5d7f	-0.06951427
8	0xbe7071e6	-0.23480949
9	0xbe3fc3bc	-0.1872701
10	0x3c3520c2	0.011055173
11	0x3dbd77f8	0.09251398
12	0x3e36f888	0.17868245
13	0xbd86547b	-0.06559082
14	0xbdc3f1e7	-0.095676236
15	0x3daed66a	0.0853699
16	0xbd9a9e67	-0.07549744
17	0x3c683aa4	0.014174137
18	0xbe075a77	-0.13218103
19	0x3dbefa13	0.093250416
20	0xbdeefa9c	-0.11668894
21	0x3de4ee7e	0.11178301
22	0xbdb60a99	-0.0888874
23	0x3da0d79a	0.07853623
24	0xbe561a6c	-0.20908517
25	0x3d44dce9	0.04806224
26	0xbb3013ec	-0.0026867343
27	0x3e175de4	0.1478191
28	0xbe00426b	-0.12525336
29	0x3e4e8727	0.20168744
30	0x3e574505	0.21022423
31	0xbde8e763	-0.113722585
32	0x3e00887c	0.12552065
33	0x3e1e2ccf	0.1544678
34	0xbe234576	-0.15944466
35	0xbd232c9a	-0.039837457
36	0x3da2038f	0.07910835
37	0xbe2a591c	-0.16635555
38	0xbdc9a1f4	-0.09845343
39	0x3d9ec2f6	0.077520296
40	0xbd234e47	-0.039869573
41	0xbddfcd7b	-0.10927864
42	0xbcc3027a	-0.023804892
43	0x3c378d4e	0.011203123
44	0xbd4c6668	-0.04990235
45	0xbe1ffda6	-0.15624103
46	0x3c46bf6d	0.0121306
47	0xbc1a41cc	-0.009415101
48	0xbdfb0c67	-0.12258225
49	0xbdce4433	-0.10071602
50	0xbe041d9d	-0.12901922
51	0x3cbdf96d	0.023190225
52	0x3df2bd8d	0.1185256
53	0x3d1c5d1b	0.03817473
54	0xbdd205d5	-0.102550186
55	0x3db961ff	0.090518944
56	0xbda28551	-0.07935584
57	0xbda68c42	-0.08132221
58	0x3d295bb5	0.041347224
59	0xbd0924f7	-0.033482518
60	0x3d836a49	0.06416757
61	0x3d262ca6	0.040569924
62	0xbdcb9cbc	-0.09942004
63	0xbe248524	-0.16066414
64	0xbe2ec1fb	-0.17066185
65	0xbda578e9	-0.080797024
66	0x3b6c3f32	0.003604841
67	0xbe3033ba	-0.17207232
68	0xbdbb0622	-0.09132029
69	0x3dab3b21	0.08360887
70	0x3d9d6533	0.07685318
71	0xbd08c420	-0.033390164
72	0xbd6f91d3	-0.05848868
73	0x3e21d463	0.15803675
74	0xbdbec28d	-0.09314451
75	0xbde827b2	-0.11335696
76	0x3dbac553	0.09119668
77	0x3d913421	0.07090021
78	0x3d78d04f	0.060745534
79	0x3ddd4a58	0.108051956
80	0xbdeab269	-0.1145981
81	0xbdd42e40	-0.10360384
82	0xbdea7c92	-0.11449541
83	0xbdfee9db	-0.12446948
84	0x3e0a96b8	0.13534057
85	0xbd838b55	-0.0642306
86	0xbd69b6b1	-0.057058994
87	0x3e2aec01	0.16691591
88	0x3e1c942e	0.15290901
89	0x3de69179	0.112582155
90	0x3e028bec	0.12748688
91	0x3d9da495	0.07697407
92	0xbdb11ba7	-0.086478524
93	0x3dc720f9	0.09723086
94	0x3b276909	0.0025544784
95	0x3e346856	0.17617926
96	0x3d1c45e1	0.03815258
97	0xbdaca850	-0.084305406
98	0x3e1999ad	0.15000029
99	0x3e81920c	0.25306737
100	0x3e1bc55a	0.15212002
101	0x3c03f55d	0.008054105
102	0xbd96c28c	-0.073613256
103	0x3e80be26	0.25145072
104	0x3d2c6a9e	0.042093866
105	0x3d8f6b8c	0.07002935
106	0x3d59d344	0.053179994
107	0x3d940309	0.072271414
108	0x3de2b531	0.11069716
109	0x3e592685	0.212061
110	0x3d6dfa76	0.058100186
111	0x3d0d6b07	0.034525897
112	0xbc381342	-0.01123506
113	0x3e60d332	0.21955565
114	0x3dc88aa0	0.097920656
115	0x3e1b7d8e	0.15184614
116	0xbca7b911	-0.020473989
117	0x3da25c02	0.07927705
118	0xbdc0aea7	-0.09408312
119	0xbcbef51c	-0.023310237
120	0x3e6583ee	0.22413608
121	0xbe0f01b4	-0.13965493
122	0x3df3ccf5	0.11904327
123	0x3c9eeb0e	0.019399192
124	0x3d535311	0.05159289
125	0x3df7127c	0.120640725
126	0xbe1c3530	-0.15254664
127	0xbc0da847	-0.0086460775

inc.attention.0.ca.0.bias f4 [4]
0	0x3e0874db	0.13325827
1	0x3d1ea8ab	0.038735073
2	0xbde22970	-0.1104306
3	0xbcad1d78	-0.021132216

inc.attention.0.ca.2.weight f4 [32, 4, 1, 1]
0	0xbe84206f	-0.25805995
1	0xbede96cb	-0.4347442
2	0x3ed57130	0.41687918
3	0x3e8fe300	0.28102875
4	0x3f06fe86	0.5273212
5	0x3e4dd646	0.2010127
6	0xbe27d8b4	-0.1639126
7	0x3e642ec5	0.22283466
8	0x3e254309	0.16138853
9	0xbebd802f	-0.3701186
10	0x3e8fbe26	0.2807476
11	0x3e26e13c	0.16296858
12	0x3e039df9	0.1285323
13	0x3ef88fe8	0.48547292
14	0x3cc3b600	0.023890495
15	0xbca20a21	-0.01978022
16	0x3ed44fe8	0.41467214
17	0xbec855a9	-0.39127854
18	0x3ed7810a	0.42090636
19	0xbcccb076	-0.024986487
20	0xbf0aaa82	-0.54166424
21	0x3ebed147	0.3726904
22	0xbc8e13a0	-0.017343342
23	0x3f0b9d50	0.54536915
24	0x3e6a4bfa	0.22880545
25	0xbd0cf76b	-0.034415644
26	0xbedae29c	-0.42751014
27	0x3de15c9e	0.110039935
28	0x3bf3b6f1	0.00743758
29	0xbe9ea0c8	-0.3098204
30	0xbe8935e0	-0.26798916
31	0x3e1f68cd	0.15567322
32	0x3f1f1d26	0.6215385
33	0xbea47348	-0.32119203
34	0xbe35f7cc	-0.17770308
35	0x3ca3792b	0.019955238
36	0xbdd9ba18	-0.10631198
37	0x3ead2d34	0.3382355
38	0x3ee7ce34	0.45274508
39	0xbd0adcbd	-0.03390192
40	0x3eb224b3	0.34793624
41	0xbea6ea7b	-0.3260077
42	0x3ecd8348	0.40139222
43	0xbe87a3a5	-0.26492038
44	0xbe9dce46	-0.30821437
45	0xbd376b3e	-0.04478001
46	0x3edf36e4	0.43596566
47	0x3edcb56b	0.4310716
48	0x3e622e44	0.22087961
49	0xbe852b1d	-0.26009455
50	0xbeacc8ea	-0.33747035
51	0x3dd3e2e1	0.10346008
52	0x3e3b3bf5	0.1828459
53	0xbef2f0d3	-0.4744936
54	0xbe2c8864	-0.16848904
55	0xbeb05afd	-0.3444442
56	0x3e25910b	0.16168611
57	0x3eebab88	0.46029305
58	0x3eb8b8da	0.3607853
59	0x3ef04344	0.4692632
60	0x3f004814	0.5010998
61	0xbe74cfd8	-0.23907411
62	0xbe63b598	-0.22237241
63	0xbefc2e15	-0.49253908
64	0x3e0d6cb7	0.13811003
65	0xbe5eef8d	-0.21771069
66	0x3eea6496	0.45779866
67	0x3dd4b9f7	0.103870325
68	0x3ede9d78	0.43479514
69	0xbe151b8e	-0.14561293
70	0xbe872112	-0.26392418
71	0xbf0512f7	-0.51982063
72	0xbd9c0e95	-0.07619969
73	0xbe1d82d6	-0.15381941
74	0xbec321ea	-0.38111812
75	0x3f25e03e	0.6479529
76	0xbedc8ac0	-0.43074608
77	0x3e2a7fe5	0.1665035
78	0xbdbcb5b0	-0.09214342
79	0x3e215674	0.15755635
80	0x3e2b78a1	0.16745235
81	0xbe345fa2	-0.17614606
82	0xbef02d74	-0.46909678
83	0x3f3b7ada	0.7323433
84	0xbe687620	-0.22701311
85	0xbeda9aa1	-0.42696097
86	0xbdd55888	-0.104172766
87	0x3ee1b49f	0.44083115
88	0xbee1d956	-0.44111127
89	0x3efba78d	0.4915127
90	0xbd26ed60	-0.040753722
91	0xbd9da3b7	-0.07697242
92	0x3ee0ab74	0.43880808
93	0xbe1bdb34	-0.15220338
94	0xbe066944	-0.13126093
95	0xbdc3e033	-0.09564247
96	0xbec900b0	-0.39258337
97	0xbd9aae3a	-0.07552762
98	0x3ed7f830	0.4218154
99	0x3e91ba5f	0.28462502
100	0x3e98ba74	0.29829752
101	0x3d9c8bf5	0.07643882
102	0xbd1c0ff0	-0.038101137
103	0xbc55e809	-0.01305581
104	0xbdee8f3d	-0.11648414
105	0xbeea282a	-0.45733768
106	0x3e4bb688	0.19893849
107	0x3e9f61cd	0.31129304
108	0x3ee861db	0.45387158
109	0x3ed491bd	0.4151744
110	0x3e86cedc	0.26329696
111	0xbe22dc35	-0.15904315
112	0xbeccedbd	-0.4002513
113	0xbe1b67a2	-0.15176252
114	0x3ee7561a	0.45182878
115	0x3ef9103d	0.486452
116	0x3bfb550a	0.0076700496
117	0xbeedad49	-0.4642127
118	0x3e39d054	0.18145877
119	0x3ebf2bc5	0.3733808
120	0xbf1d74ca	-0.6150633
121	0xbec359a4	-0.38154328
122	0x3eae8560	0.34086132
123	0x3eeb26a6	0.45927924
124	0xbcb2ef67	-0.021842672
125	0xbe1f7f62	-0.15575936
126	0x3e280a90	0.1641028
127	0x3ea770e2	0.3270331

inc.attention.0.ca.2.bias f4 [32]
0	0x3eab99ae	0.33515686
1	0x3eafa69f	0.3430681
2	0xbb08aaaf	-0.0020853688
3	0x3e88d4b5	0.26724783
4	0x3e80c6a2	0.25151545
5	0xbe872186	-0.26392764
6	0x3f13aef6	0.57688844
7	0x3edea5b3	0.43485793
8	0x3e7c96ff	0.24666975
9	0x3dff5996	0.12468259
10	0x3e23cfde	0.15997264
11	0x3e13c205	0.14429481
12	0x3dd67fa5	0.10473565
13	0xbd539f5b	-0.051665645
14	0xbd4b802c	-0.04968278
15	0xbedfdd54	-0.43723547
16	0xbe0a4826	-0.13504085
17	0xbd1ecbcd	-0.03876858
18	0x3d9816da	0.074262336
19	0xbdf14cd8	-0.11782235
20	0x3edc41bf	0.4301891
21	0xbe0f58f6	-0.1399878
22	0x3aafe252	0.0013418889
23	0xbe95d4a9	-0.2926381
24	0xbeb0ddbd	-0.34544173
25	0x3d9d9f4a	0.076963976
26	0x3f3190f8	0.6936183
27	0xbdc5b049	-0.09652764
28	0x3e1155c6	0.14192876
29	0xbda4127d	-0.08011339
30	0xbefaf4d1	-0.49014905
31	0x3f41feb3	0.75779265

inc.attention.1.pa.0.weight f4 [4, 32, 1, 1]
0	0x3dbc1c40	0.09185076
1	0x3e40a6ee	0.18813679
2	0x3e192403	0.14955144
3	0x3e4d84bc	0.20070165
4	0x3e8df888	0.27728677
5	0x3dcdf854	0.100571305
6	0x3e168d4e	0.14702341
7	0x3e62d38b	0.2215101
8	0x3e365f63	0.17809825
9	0x3e90d926	0.2829067
10	0x3e9c0e1d	0.30479518
11	0xbdc70d99	-0.097193904
12	0x3db9394b	0.09044131
13	0x3e1177c7	0.14205848
14	0x3e9037fe	0.2816772
15	0x3db569d1	0.088580735
16	0x3c48c0d1	0.012253002
17	0x3e94e845	0.29083458
18	0x3d8eb31a	0.06967755
19	0xbd1ff160	-0.039048553
20	0x3ea83591	0.32853368
21	0xbd822c58	-0.06356114
22	0x3e64f905	0.22360618
23	0x3e24109d	0.16021962
24	0x3e1b0ad0	0.15140843
25	0x3e2371a4	0.15961319
26	0x3cabe9d5	0.020985523
27	0x3e69b559	0.22823085
28	0x3e8757ea	0.2643426
29	0x3e2bc5c0	0.16774654
30	0x3dfb79e8	0.12279111
31	0x3cb91c85	0.022596607
32	0xbe31bbe8	-0.17356837
33	0xbd8b765b	-0.06809684
34	0xbe476818	-0.19473302
35	0x3ddb257b	0.10700508
36	0x3dd4a864	0.103836805
37	0xbe91b4ad	-0.28458157
38	0x3e7c6b5c	0.2465033
39	0x3d1513f5	0.036395986
40	0xbcd4fb94	-0.025998868
41	0x3d344621	0.044012193
42	0xbdd0ba55	-0.1019179
43	0x3e320325	0.17384012
44	0x3d4600c4	0.048340574
45	0xbd4d2717	-0.050086107
46	0x3e445d46	0.19176206
47	0xbe688250	-0.2270596
48	0x3deb75ae	0.11497055
49	0x3d8af935	0.06785814
50	0x3e95a119	0.2922447
51	0xbdb372f3	-0.08762159
52	0xbe14b093	-0.14520483
53	0x3df501c9	0.11963231
54	0xbe0bc4d7	-0.13649307
55	0x3db05ce0	0.086114645
56	0x3d823e60	0.06359553
57	0x3caf6e35	0.021414855
58	0x3e1883f3	0.14894085
59	0xbdffedec	-0.12496552
60	0x3d85fd19	0.06542415
61	0xbdfdda4a	-0.12395151
62	0x3d3f564c	0.04671316
63	0xbd0423b9	-0.03226063
64	0x3e49909e	0.19684073
65	0x3df9d376	0.12198536
66	0x3e3762df	0.1790881
67	0x3df9f4ea	0.12204917
68	0x3e20b3d1	0.15693595
69	0x3e4fdcff	0.20299147
70	0x3d80abca	0.06282766
71	0x3ddfa00f	0.10919201
72	0x3e871f26	0.26390952
73	0x3d8d12c1	0.06888343
74	0x3e85bde5	0.2612144
75	0x3e0a5925	0.13510568
76	0x3d89a892	0.06721605
77	0xbd306e10	-0.043073714
78	0x3df54773	0.119765185
79	0x3e2e2450	0.1700604
80	0x3e88561e	0.26628202
81	0x3e944717	0.28960487
82	0x3e70cc75	0.23515494
83	0x3e613bc6	0.21995458
84	0x3e89cc0c	0.26913488
85	0x3d95d52a	0.073160484
86	0x3d95d0fb	0.073152505
87	0x3ed73391	0.4203153
88	0x3d997adf	0.07494139
89	0x3e3d2d22	0.18474248
90	0x3cc54000	0.02407837
91	0x3e8491a6	0.2589237
92	0x3e1f88b9	0.155795
93	0x3e5ed174	0.21759588
94	0x3da60397	0.081061535
95	0x3d96acd5	0.07357184
96	0x3df34d27	0.1187995
97	0x3e32bcff	0.17454909
98	0x3d392e10	0.045209944
99	0x3da2e273	0.07953348
100	0x3e0828e2	0.13296846
101	0x3e3770c8	0.17914116
102	0xbd8deae6	-0.06929569
103	0x3dfc8798	0.1233055
104	0x3cc2e6f8	0.023791775
105	0x3d57ede6	0.052717112
106	0x3edd45b4	0.43217242
107	0x3e6f8cb2	0.23393515
108	0x3d8fde01	0.07024766
109	0x3e3aad23	0.18230109
110	0x3dc7df40	0.097593784
111	0x3c134959	0.008989655
112	0x3e736e1c	0.23772472
113	0x3e13d991	0.14438464
114	0x3e11e3fb	0.14247124
115	0x3dd92adc	0.10603878
116	0x3d3c9e65	0.046049494
117	0x3c09aa0f	0.008402362
118	0x3dbd4021	0.09240747
119	0x3e89dff4	0.26928675
120	0x3d860de0	0.06545615
121	0x3ec042e8	0.37551045
122	0xbde41afc	-0.11137959
123	0x3eced7c5	0.40398994
124	0x3e1c7977	0.1528071
125	0xbd183e73	-0.03716893
126	0xbd1e4ee8	-0.03864947
127	0x3dec1846	0.11528067

inc.attention.1.pa.0.bias f4 [4]
0	0x3e1c043c	0.1523599
1	0xbd8fb25b	-0.070164405
2	0x3e3a8d9f	0.18218087
3	0x3e99df7c	0.30053318

inc.attention.1.pa.2.weight f4 [1, 4, 1, 1]
0	0x3e0f8376	0.14014992
1	0xbec38b22	-0.38192087
2	0x3e84ac77	0.2591283
3	0x3e993b7a	0.2992819

down1.down.maxpool_conv.1.conv.0.weight f4 [64, 32, 3, 3]
0	0x3c8777f0	0.016536683
1	0xbc123958	-0.008924805
2	0xbd3b0e68	-0.045668036
3	0xbb76a35b	-0.0037633989
4	0x3cf55d57	0.029951734
5	0x3d1e97da	0.038719036
6	0xbd870bbf	-0.06594037
7	0xbdce906f	-0.10086142
8	0xbd6cd953	-0.057824444
9	0xbd3ddf79	-0.0463557
10	0xbd4c205c	-0.049835548
11	0x3aa68f63	0.0012707527
12	0xbccec9fb	-0.025242796
13	0x3b54d564	0.0032475824
14	0xbc14c967	-0.009081221
15	0x3d756012	0.059906073
16	0x3d63bac0	0.05559802
17	0x3d48c745	0.049018163
18	0x3d2c8aef	0.042124685
19	0xbcfdda57	-0.030987902
20	0xbd5fe4de	-0.054661624
21	0xbd89250f	-0.066965215
22	0xbd2cf47c	-0.042225346
23	0xbcb32b1d	-0.021871144
24	0xbc99a9ed	-0.018757785
25	0xbd4da178	-0.050202817
26	0xbdc3fc54	-0.09569612
27	0x3c41e7ba	0.011835033
28	0xba1b13f0	-0.00059157517
29	0xbc9c1c33	-0.019056415
30	0xbb989789	-0.0046567363
31	0xbb6ed23f	-0.0036441234
32	0x3be5ddec	0.0070149805
33	0x3c695599	0.0142415995
34	0x3b14a306	0.0022680177
35	0x3c83d09d	0.016090686
36	0xbd9c87ce	-0.0764309
37	0xbd96bcc1	-0.07360221
38	0xbdea6d84	-0.1144667
39	0xbd540397	-0.051761236
40	0xbd822484	-0.06354621
41	0xbd37076c	-0.044684812
42	0xbd8315ec	-0.06400666
43	0xbcf40807	-0.029788984
44	0xbd4fb016	-0.050705038
45	0xbca12244	-0.01966966
46	0xbc781d34	-0.015143681
47	0x3d0f32d6	0.03496059
48	0xbd623ae3	-0.05523194
49	0xbc5cfebc	-0.013488468
50	0xbcc7b9a5	-0.024380514
51	0xbd14b74a	-0.03630761
52	0xbd43d8de	-0.047814243
53	0x3c7d502d	0.01546101
54	0xbd8d287e	-0.06892489
55	0xbb664019	-0.003513342
56	0xbd0e92bc	-0.034807906
57	0xbd4ca454	-0.049961403
58	0xbc3cd132	-0.011524485
59	0xbd716477	-0.0589337
60	0x3d154dce	0.036451153
61	0x3d5e0ad5	0.05420955
62	0xbb28e473	-0.0025770932
63	0xbd0f78fc	-0.03502749
64	0xbc8352c9	-0.016030686
65	0xbc022e7b	-0.007945652
66	0x3c3e89ae	0.011629505
67	0xbd307f23	-0.043089997
68	0xbd6beefe	-0.057600968
69	0xbd92ed0c	-0.07174119
70	0x3c671c04	0.014105801
71	0x3a15b151	0.0005710321
72	0x3b0c77c5	0.0021433693
73	0x3d6cb790	0.057792246
74	0xbd827e2b	-0.06371721
75	0x3caca525	0.02107484
76	0x3d68123a	0.056658007
77	0xbce044e8	-0.027376607
78	0xbcb0dbd5	-0.0215892
79	0xbd2e0f8f	-0.042495307
80	0xbcb2c00f	-0.021820096
81	0xbc8231f7	-0.015892966
82	0xbd34da23	-0.044153344
83	0xbd687b44	-0.05675818
84	0xbcca140a	-0.024667758
85	0x3d422f32	0.04740829
86	0xbcd8e3db	-0.026475837
87	0xbd7e80af	-0.06213444
88	0xba48e124	-0.0007662943
89	0x3c9fae7d	0.019492382
90	0xbda7ce19	-0.08193607
91	0xbde5e3c3	-0.11225083
92	0xbde6b5d0	-0.11265147
93	0xbd046564	-0.032323256
94	0xbd9516b8	-0.07279724
95	0xbd85f2ee	-0.06540476
96	0xbdc3e251	-0.09564651
97	0xbd4a30e7	-0.049363043
98	0xbd8a3738	-0.067488134
99	0xbd43ef71	-0.04783577
100	0x3cb8bdf6	0.022551518
101	0x3ad4c997	0.0016234395
102	0xbc61d122	-0.013782771
103	0xbd01a1f2	-0.031648584
104	0xbbd51c74	-0.006503636
105	0xbd0435ab	-0.032277744
106	0x3d316942	0.043313272
107	0xbc81156a	-0.015757281
108	0x3d871727	0.06596213
109	0xbc3358a0	-0.010946423
110	0x3d0655ad	0.03279655
111	0x3d869ae7	0.06572514
112	0x3d47196f	0.04860824
113	0x3cd922ee	0.026505914
114	0x3c599737	0.013280681
115	0xbbc21081	-0.0059223776
116	0x3d7b33a2	0.061328538
117	0x3d2b56e7	0.041830923
118	0x3cb58f06	0.022162925
119	0xbb01b976	-0.0019794381
120	0xbd497958	-0.049187988
121	0x3c5ac5ec	0.013352852
122	0x3c9057b0	0.017619938
123	0xbd941cb3	-0.072320364
124	0x3cc82f16	0.024436515
125	0xbd929467	-0.07157212
126	0xbc9b362d	-0.018946731
127	0xbd15dc70	-0.03658718
128	0x3d7c64e3	0.06161965
129	0xbdb211cf	-0.08694803
130	0xbc4525f4	-0.0120329745
131	0x3d00da3c	0.031458125
132	0xbc48574b	-0.0122278435
133	0x3d67cc81	0.056591514
134	0x3bb7b3ce	0.005606151
135	0x3d1f3b93	0.038875174
136	0x3d05d71a	0.03267584
137	0x3ceec23b	0.02914535
138	0xbd341663	-0.043966662
139	0x3d401e60	0.046903968
140	0x3cbcaa75	0.023030499
141	0xbd85bbc7	-0.06529956
142	0xbd88ffc1	-0.06689406
143	0xbc71ea01	-0.014765264
144	0x3d2a3626	0.041555546
145	0xbd029d4b	-0.031888288
146	0x3d011910	0.031518042
147	0xbbc4d9eb	-0.006007423
148	0xbcb1d342	-0.02170718
149	0x3da5c981	0.080950744
150	0xbd0e4d99	-0.03474197
151	0xbb4f7f08	-0.003166141
152	0xbcf77229	-0.030205803
153	0xbbdc11ce	-0.0067159897
154	0x3cefd10f	0.029274492
155	0x3c0cdf39	0.008598142
156	0xbccd3acc	-0.02505245
157	0x3d2ba45a	0.041904785
158	0x3d25c07a	0.040466763
159	0x3b49892b	0.0030751924
160	0xbd017411	-0.03160483
161	0x3b3c4a83	0.0028730936
162	0x3d848d51	0.064722665
163	0x3b9fa68c	0.004872149
164	0xbbf45045	-0.007455858
165	0x3dbbb770	0.09165847
166	0x3d5e8183	0.05432273
167	0x3d8b044b	0.06787928
168	0x3cb8ca87	0.02255751
169	0x3db3d8e5	0.08781604
170	0xbc017f3f	-0.007903873
171	0x3d67960b	0.056539577
172	0x3d0081e2	0.031373866
173	0xbc482838	-0.01221662
174	0x3c98be7b	0.018645516
175	0x3d5428f0	0.051796854
176	0x3c781fee	0.015144331
177	0xbdb5b5dc	-0.088725775
178	0xbd8b9f95	-0.06817547
179	0xbcaa6a18	-0.020802543
180	0xbcf1d086	-0.029518377
181	0x3c936b1d	0.017995412
182	0xbc96c5e2	-0.018404905
183	0x3c4e8b12	0.012606399
184	0xbd2d51b9	-0.042314265
185	0x3cb48253	0.0220348
186	0xbad5841b	-0.0016289981
187	0x3d038c6c	0.03211634
188	0xbd0e7cdf	-0.034787055
189	0xbd7091ef	-0.058732923
190	0xbd8ed253	-0.0697371
191	0xbd1248f7	-0.035714116
192	0x3d1caa4d	0.03824835
193	0x3ca38f1a	0.019965697
194	0xb89eedbf	-7.578311e-05
195	0xbd3c1cbc	-0.04592584
196	0x3ca914ae	0.020639744
197	0xbc99df45	-0.018783221
198	0x3c36ec2f	0.011164709
199	0x3d0bd529	0.034138832
200	0x3be65a75	0.0070298263
201	0x3db6b539	0.08921284
202	0x3d4de6cb	0.05026893
203	0xbc9783be	-0.018495437
204	0xbcedcad3	-0.029027378
205	0x3d1ded9f	0.03855669
206	0xbd04aeb5	-0.032393176
207	0xbdd9a9f7	-0.10628121
208	0xbc5ff715	-0.013669749
209	0xbdab6d4b	-0.08370455
210	0xbd8a380d	-0.06748972
211	0xb944b182	-0.00018758143
212	0x3cc1455c	0.023592643
213	0x3d4e617f	0.05038595
214	0x3d0e3122	0.034714825
215	0xbd537493	-0.051624846
216	0x3d4815c5	0.048848886
217	0xbc8dd0de	-0.01731151
218	0x3d1ae45a	0.03781543
219	0xbc60e6fc	-0.013726946
220	0xbb10c636	-0.00220908
221	0x3d209276	0.039202176
222	0xbd937a75	-0.07201091
223	0x3bca371b	0.00617112
224	0x3c05e90b	0.008173238
225	0x3d0ba4f9	0.034092877
226	0xbc999752	-0.018748913
227	0xbd926363	-0.07147863
228	0xbc128a49	-0.008944103
229	0xbc3a1ebe	-0.011359869
230	0x3cf67b6d	0.03008815
231	0x3cf9dff3	0.030502295
232	0xbcb0c848	-0.021579877
233	0x3c141528	0.009038247
234	0x3cc8471a	0.024447966
235	0x3c871d29	0.016493397
236	0x3c5d0ac3	0.013491335
237	0x3d8255c9	0.063640185
238	0x3bb05b8e	0.005382008
239	0x3d583821	0.052787904
240	0x3d6b580e	0.057457022
241	0x3c4de3b4	0.012566496
242	0xbd2c2067	-0.04202309
243	0xbd5eec1c	-0.05442439
244	0xbddd0fee	-0.10794054
245	0xbd630b9b	-0.05543099
246	0xbdcb1445	-0.099159755
247	0xbdc6c860	-0.09706187
248	0xbb372462	-0.002794527
249	0x3aae6a11	0.0013306757
250	0x393fc47f	0.0001828838
251	0xbd23743f	-0.039905783
252	0x3bbb3cd5	0.005714039
253	0x3d75a018	0.05996713
254	0x3d4c3201	0.049852375
255	0x3d286b30	0.041117847

down1.down.maxpool_conv.1.conv.0.bias f4 [64]
0	0x3da00cad	0.07814918
1	0xbc9a8b17	-0.018865151
2	0x3ce6b1f6	0.02816103
3	0xbcc20689	-0.023684757
4	0x3cf1a4c3	0.02949751
5	0xbddb3c7c	-0.10704896
6	0x3dc1e669	0.094677754
7	0x3d6c0e9d	0.057631124
8	0xbd98c5fd	-0.07459638
9	0xbcec6c45	-0.02886022
10	0xbcfe27a5	-0.031024763
11	0xbb1fe37d	-0.0024397068
12	0x3d0cb8d9	0.034355972
13	0xbd3bbafa	-0.04583261
14	0xbd4aad6a	-0.049481787
15	0xbd601272	-0.05470509
16	0xbd4e44f0	-0.050358713
17	0xbc6c248e	-0.014413012
18	0x3d999f78	0.075011194
19	0xbd2f6287	-0.042818572
20	0x3dd37869	0.10325701
21	0xbdaa6d13	-0.083215855
22	0xbc822da1	-0.015890898
23	0xbd265ee4	-0.04061784
24	0xbbf85cb8	-0.0075794123
25	0x3d88b6de	0.06675504
26	0xbd9c2fe5	-0.07626323
27	0x3c20f46d	0.009823901
28	0xbccb10a8	-0.024788216
29	0x3db3ec78	0.08785337
30	0xbc8b189a	-0.016979504
31	0xbd4714c5	-0.04860379
32	0x3c94cfbf	0.018165467
33	0x3d8baf97	0.068206005
34	0x3a7b7587	0.0009592403
35	0xbd99479e	-0.07484363
36	0x3da8bfea	0.0823973
37	0x3d788455	0.060673077
38	0x3d46823b	0.04846404
39	0xbd1b14f8	-0.037861794
40	0x3d4fc387	0.05072358
41	0x3d6c7bac	0.05773513
42	0xbd4225d9	-0.047399376
43	0xbd246942	-0.040139444
44	0x3d618976	0.055062734
45	0xbdf95cdc	-0.12175915
46	0xbdd1f14b	-0.10251101
47	0x3d6a3347	0.057177808
48	0xbc6854f9	-0.014180415
49	0xbb40b2cf	-0.0029403453
50	0xbd554ffa	-0.052078225
51	0x3d42fcbc	0.047604308
52	0x3d46ee2a	0.048566975
53	0x3dab616b	0.083681904
54	0xbcec4521	-0.028841557
55	0xbd1bd430	-0.038044155
56	0x3d633a38	0.055475444
57	0xbc8f9664	-0.017527767
58	0xbca4ce5e	-0.020117935
59	0x3cad36b3	0.021144247
60	0x3dc1ee5c	0.094692916
61	0xbd857fbb	-0.06518503
62	0x3d6b4be5	0.057445426
63	0x3c1b1703	0.009465936

down1.down.maxpool_conv.1.conv.3.weight f4 [64, 64, 3, 3]
0	0xbcb153b1	-0.021646352
1	0xbcf74b66	-0.03018732
2	0xbc8d1cbf	-0.017225621
3	0x3bb38870	0.005478911
4	0x3d276be5	0.04087438
5	0x3d52000e	0.051269583
6	0x3d0f2174	0.034944013
7	0xbce180e0	-0.027527273
8	0x3be3dc2b	0.0069537363
9	0xbe26a854	-0.1627515
10	0xbdecd0b1	-0.11563242
11	0xbd908159	-0.07055921
12	0xbc959c18	-0.018262908
13	0x3ca00fb6	0.019538742
14	0x3d236510	0.039891303
15	0x3c9b99de	0.018994268
16	0x3d695edf	0.05697524
17	0x3a7a73c9	0.00095539965
18	0x3d2e08bc	0.0424888
19	0x3d174bf1	0.036937658
20	0x3d7cb8c5	0.061699647
21	0x3d3db047	0.04631069
22	0x3db9b4ad	0.09067664
23	0x3cc263af	0.023729173
24	0x3d7a1ff2	0.06106562
25	0x3d30b1d9	0.04313836
26	0x3d6c6c55	0.0577205
27	0x3d1adc72	0.03780789
28	0x3d2103b3	0.03931017
29	0x3d6e20e1	0.058136825
30	0x3ce21492	0.0275977
31	0x3d775265	0.060381312
32	0x3c9f3e99	0.019439029
33	0x3d6583c0	0.05603385
34	0x3a790d96	0.00095006207
35	0x3d15efb1	0.03660554
36	0xbd04b984	-0.032403484
37	0x3b89d91f	0.004206791
38	0x3c6a91ea	0.014317015
39	0x3a9ce7eb	0.0011970972
40	0xbd2920ec	-0.041291162
41	0xbcba3811	-0.022731813
42	0xbcafe510	-0.02147153
43	0xbc53b0c5	-0.012920563
44	0xbcde1655	-0.027110258
45	0xbdcbae26	-0.099453256
46	0xbda2361b	-0.07920476
47	0xbd8cd75b	-0.06877013
48	0xbdb42939	-0.08796925
49	0xbd8b46f4	-0.068006426
50	0xbd1d541a	-0.038410284
51	0xbdb3bbb7	-0.08776038
52	0xbd986fa8	-0.07443172
53	0xbdc09323	-0.09403064
54	0x3d3e4850	0.04645568
55	0x3d88d6a3	0.06681564
56	0x3d9c5ba1	0.07634664
57	0x3c571463	0.013127419
58	0xbc78d173	-0.015186655
59	0x3d4a7de1	0.049436454
60	0x3d4286f0	0.047491968
61	0x3cdc4c84	0.026891954
62	0x3d4d55cc	0.05013065
63	0xbc57c2ce	-0.013169004
64	0x3c7bd261	0.015369982
65	0x3cc7c043	0.02438367
66	0xbd16629e	-0.036715142
67	0xbcd08e64	-0.025458522
68	0xbcda6433	-0.026659107
69	0xbbd33567	-0.006445575
70	0xbd11538f	-0.03548008
71	0x3c9a1998	0.018811032
72	0xbd963ede	-0.0733621
73	0xbe022658	-0.1270994
74	0xbde10451	-0.109871514
75	0xbd8af8cf	-0.06785738
76	0xbe0a90e6	-0.13531837
77	0xbdc7968b	-0.09745511
78	0xbd78c30f	-0.060732897
79	0xbd962a41	-0.07332278
80	0xbdaf2e9b	-0.08553811
81	0x3a009619	0.0004905179
82	0x3ac66985	0.0015137648
83	0x3d88dd9b	0.06682893
84	0x3d8651eb	0.06558593
85	0x3d0a0ae6	0.0337018
86	0x3ca3adcc	0.019980334
87	0xbc8e2b3a	-0.017354596
88	0xbc8f48fe	-0.01749086
89	0x3d1ba385	0.03799774
90	0xbbbc26ff	-0.0057419534
91	0x3c22c922	0.009935649
92	0xbca010b4	-0.019539215
93	0xbd42fb21	-0.047602776
94	0xbcad0837	-0.021122081
95	0xbd6112bd	-0.05494951
96	0x3c992f8f	0.018699436
97	0xbcff0bc6	-0.031133544
98	0xbd1c4d81	-0.03815985
99	0xbd095dd6	-0.033536755
100	0xbcfba4db	-0.030718258
101	0xbc84912f	-0.01618251
102	0xbb2f91cc	-0.0026789783
103	0xbcb0882c	-0.021549307
104	0x3cde7abe	0.027158137
105	0x3c2c604a	0.010521004
106	0x3d628bef	0.055309232
107	0x3cba726f	0.022759644
108	0xbc47af5f	-0.012187808
109	0x3c70595a	0.014669741
110	0x3d2a9239	0.041643355
111	0x3c7778a7	0.015104449
112	0x3c8a4ee8	0.016883329
113	0x3d70c33e	0.058779947
114	0xbc5d450d	-0.0135052325
115	0x3c44c290	0.012009278
116	0xbbc0c5cb	-0.0058829538
117	0x3ca12ad6	0.019673746
118	0x3cd91f0c	0.026504062
119	0x3bb66a42	0.005566866
120	0x3c312f90	0.010814562
121	0xbd46da84	-0.048548236
122	0xbce3d909	-0.027813451
123	0xbbbaac7c	-0.0056968313
124	0x3d0d67ef	0.034522947
125	0x3c7c21d4	0.015388925
126	0xbba30aa6	-0.0049756346
127	0xbd2c72ae	-0.042101555
128	0xbcaeb930	-0.021328539
129	0xbc1002d1	-0.008789734
130	0x3b9339e5	0.0044929856
131	0xbd538192	-0.05163724
132	0xbcac3a87	-0.021024002
133	0xba591f69	-0.00082825735
134	0xbd5c2330	-0.053744495
135	0xbce744db	-0.028231075
136	0xbdd98c89	-0.10622508
137	0xbddfbd63	-0.109247945
138	0x3cbae97e	0.022816416
139	0xbc3c79b0	-0.011503622
140	0x3b08a72f	0.0020851602
141	0x3d9dc9fb	0.0770454
142	0x3dc0efc6	0.09420733
143	0x3df1c666	0.118054196
144	0x3d9352a4	0.07193497
145	0x3d7f6bde	0.06235873
146	0x3e08e9eb	0.13370483
147	0x3d14ad09	0.03629783
148	0x3ca8425a	0.020539451
149	0x3c0acc6c	0.00847159
150	0xbc5c401a	-0.013443017
151	0x3ccb38dc	0.024807386
152	0x3c01eaeb	0.007929544
153	0x3ccaef51	0.024772318
154	0xbc905dc7	-0.017622842
155	0x3aaf1d9b	0.0013360264
156	0xbd0c2065	-0.03421058
157	0xbbe815f3	-0.0070826947
158	0x3c0e1f65	0.008674477
159	0x3c6c1649	0.01440961
160	0x3cbb6a0a	0.022877712
161	0xbbce7f43	-0.006301792
162	0x3e5913ce	0.21198961
163	0x3e7dbc17	0.24778782
164	0x3e429e42	0.19005683
165	0x3e25d2ed	0.16193743
166	0x3e44014e	0.19141123
167	0x3e0882cd	0.13331147
168	0x3e306ef9	0.17229833
169	0x3e100f32	0.14068297
170	0x3df1c191	0.11804498
171	0xbdcc0564	-0.09961966
172	0xbd19da1f	-0.037561532
173	0xbc933804	-0.017971046
174	0xbd77185c	-0.060325965
175	0xbdc6b21f	-0.09701943
176	0xbdbb4614	-0.09144226
177	0xbd94c261	-0.07263637
178	0xbdd62b34	-0.10457459
179	0xbdc91d54	-0.09820047
180	0x3cde9396	0.027169984
181	0x3cda7b73	0.026670193
182	0x3c88cfc3	0.016700631
183	0x3d4d7937	0.050164428
184	0x3bcc0869	0.0062265885
185	0x3d1b7003	0.03794862
186	0xba8a3e2e	-0.0010547095
187	0x3b90be8b	0.0044172457
188	0xbc55e0b5	-0.013054063
189	0xbcdfb05f	-0.02730578
190	0x3d210480	0.039310932
191	0x3b51cd35	0.0032013182
192	0xbd277ef3	-0.040892553
193	0x3cb90e02	0.022589687
194	0x3ce7762c	0.02825459
195	0xbc557dc8	-0.013030477
196	0x3d36ce48	0.04463032
197	0x3c88a8f1	0.01668212
198	0xbc9607a8	-0.018314198
199	0xbd7ebaa5	-0.062189717
200	0xbdaa2256	-0.0830733
201	0xbd2c1b24	-0.04201807
202	0xbcd05fa4	-0.02543623
203	0xbd85f9a2	-0.06541754
204	0x3b960207	0.0045778784
205	0x3ba1ac03	0.0049338355
206	0x3c3ec199	0.011642837
207	0xbd0d18b9	-0.034447405
208	0xbcdb77a2	-0.026790444
209	0xbcc0528c	-0.023476861
210	0xbd9e0a04	-0.07716754
211	0xbd1b1c6b	-0.0378689
212	0xbd312bc2	-0.04325462
213	0xbdcd6c7b	-0.10030457
214	0xbd377baf	-0.04479569
215	0xbdb53697	-0.08848303
216	0x3dd1168d	0.10209379
217	0x3d6566a0	0.056006074
218	0x3d89d403	0.06729891
219	0xbd85fa28	-0.06541854
220	0xbd414eb2	-0.04719419
221	0xbcc74465	-0.024324605
222	0x3ddbc90f	0.10731708
223	0x3dd77fa1	0.1052239
224	0x3dcf976f	0.101363055
225	0x3ca10636	0.019656282
226	0x3d996596	0.07490079
227	0x3d54321d	0.051805604
228	0x3d45f639	0.04833052
229	0x3c6ac485	0.0143290805
230	0x3d65dda8	0.05611959
231	0xbc87c694	-0.016574182
232	0xbcb0c382	-0.0215776
233	0xbd11c814	-0.0355912
234	0xbd631697	-0.055441465
235	0xbdd8d6b2	-0.10587825
236	0xbdf55a9b	-0.11980172
237	0xbdad02d7	-0.08447807
238	0xbd8e7b33	-0.06957092
239	0xbda6d405	-0.08145908
240	0xbd0fd51a	-0.03511534
241	0xbd6b0248	-0.057375222
242	0xbd2632ea	-0.0405759
243	0x3cc6e1a2	0.024277512
244	0x3c08a8b6	0.008341005
245	0x3d1e6245	0.038667936
246	0xbd6b7249	-0.057482038
247	0xbd172c13	-0.036907267
248	0xbc67dbbe	-0.014151512
249	0xbd828374	-0.06372729
250	0xbd2a735c	-0.04161392
251	0xbbcbced5	-0.0062197247
252	0xbd227c76	-0.039669476
253	0x3afb9fd9	0.0019197419
254	0xbd2cb88f	-0.042168196
255	0x3c9c0f4a	0.01905026

down1.down.maxpool_conv.1.conv.3.bias f4 [64]
0	0x3d83e322	0.064398065
1	0x3d39c482	0.04535342
2	0x3db6e6b4	0.08930722
3	0xbd743502	-0.059620865
4	0x3d04799f	0.03234255
5	0x3c56d0af	0.0131112775
6	0x3d9e3da0	0.07726598
7	0x3cbf3f4a	0.023345608
8	0x3d1c994a	0.038232125
9	0x3cf05ce4	0.029341169
10	0x3d3b0490	0.045658648
11	0x3dbb9944	0.091600925
12	0xbd61026e	-0.054933958
13	0x3d5b9181	0.05360556
14	0x3d890845	0.066910304
15	0x3b4c714b	0.0031195458
16	0x3da3da7a	0.080006555
17	0xbbbce31e	-0.005764379
18	0x3d5abe82	0.05340434
19	0x3b86d51d	0.0041147606
20	0x3d743422	0.05962003
21	0x3df290f6	0.11844055
22	0x3db2a2f3	0.08722486
23	0x3c4e80cb	0.012603949
24	0xbd472fc6	-0.048629545
25	0x3e165baa	0.14683405
26	0x3dd0ecfb	0.102014504
27	0xbca5964a	-0.020213265
28	0x3db154aa	0.086587265
29	0xbc254280	-0.010086656
30	0xbc6b0714	-0.014344949
31	0x3ce7054d	0.02820077
32	0x3d017ae7	0.03161135
33	0xbcac37f5	-0.021022776
34	0x3c200951	0.009767846
35	0xbcf3d5dc	-0.029765062
36	0x3dd76404	0.10517123
37	0x3d6b9ac3	0.05752064
38	0x3dfd33d4	0.12363401
39	0xbcf5fdb5	-0.030028204
40	0x3da898ea	0.08232291
41	0x3d3d8f1a	0.04627905
42	0x3c9bf672	0.019038413
43	0x3d1edc59	0.03878436
44	0x3d37fac1	0.044916872
45	0xbbcb369e	-0.0062015792
46	0x3d931569	0.07181818
47	0x3de3605f	0.11102366
48	0x3d2daf46	0.042403482
49	0xbcacec91	-0.021108897
50	0xbcbd0b1b	-0.023076585
51	0xbca64c6d	-0.020300115
52	0x3dd8ea3a	0.1059155
53	0xbdc35272	-0.095372096
54	0xbabbda73	-0.0014332071
55	0x3e0ec210	0.13941216
56	0x3c84ec8d	0.016226077
57	0x3bc993bc	0.0061516445
58	0x3c8f1787	0.017467273
59	0x3c111108	0.008854158
60	0x3bb2de24	0.00545861
61	0x3da17ccf	0.078851335
62	0x3b5e6dad	0.0033939884
63	0x3dc3a45c	0.095528334

down1.attention.0.ca.0.weight f4 [8, 64, 1, 1]
0	0x3de3f2a0	0.111302614
1	0xbd2c66f9	-0.04209039
2	0x3d5caad3	0.05387385
3	0x3d8ac4a1	0.06775785
4	0x3debea1c	0.11519262
5	0xbe21c1e4	-0.1579662
6	0xbda72f49	-0.08163316
7	0x3d6f882b	0.05847947
8	0x3e54d62f	0.2078483
9	0x3e1809a8	0.14847434
10	0x3e5f400e	0.21801779
11	0x3daf4c29	0.08559448
12	0x3e07e429	0.1327063
13	0x3e5c5c7a	0.21519652
14	0xbb156f3d	-0.00228019
15	0x3c71219c	0.014717486
16	0xbdcf0f53	-0.10110345
17	0xbd36a9ab	-0.0445954
18	0x3e287ef7	0.16454683
19	0xbd7959fd	-0.060876835
20	0x3c28bcc6	0.010298913
21	0xbe023f10	-0.12719369
22	0xbdbbd7da	-0.0917203
23	0x3df0e26b	0.11761936
24	0x3e3461e7	0.17615472
25	0xbdaace89	-0.08340175
26	0xbd5ce67a	-0.053930737
27	0x3d5fe4fc	0.054661736
28	0xbe2895c3	-0.1646338
29	0x3e760b78	0.24027812
30	0xbe574879	-0.2102374
31	0x3e35be53	0.17748384
32	0x3e6845f0	0.22682929
33	0x3e03a809	0.12857069
34	0x3dd4a9d3	0.10383954
35	0x3dec30bc	0.11532733
36	0x3d02d65e	0.031942718
37	0x3e46a382	0.19398311
38	0xbc18be6a	-0.009322742
39	0x3e602581	0.21889307
40	0x3e2634d4	0.1623109
41	0xbe5ce1a0	-0.21570444
42	0x3e310129	0.17285599
43	0x3e095da0	0.13414621
44	0x3d3bc17f	0.04583883
45	0x3dd73f28	0.10510093
46	0xbd99b1d4	-0.07504621
47	0xbdcaa8e4	-0.098954946
48	0xbd194f20	-0.037428975
49	0x3cbbd7dd	0.02293008
50	0x3de81d20	0.1133368
51	0x3dd69cc1	0.10479117
52	0xbd5bb824	-0.053642407
53	0x3e1e984e	0.15487787
54	0x3e30ce12	0.1726611
55	0x3d646307	0.055758502
56	0x39e772ba	0.0004414523
57	0x3d81b242	0.06332828
58	0xbe5d07e8	-0.21585047
59	0x3dce048d	0.10059462
60	0x3c8705fe	0.01648235
61	0xbd28dee4	-0.04122819
62	0x3e45c75f	0.19314335
63	0x3d4bdb77	0.049769845
64	0x3dfabe80	0.12243366
65	0x3e1b76fb	0.15182106
66	0x3d9ba828	0.07600433
67	0x3b9ab5fd	0.0047214017
68	0x3e98bd1a	0.29831773
69	0x3e0081a7	0.12549458
70	0x3e9a1e9a	0.30101472
71	0x3c4d169b	0.012517597
72	0x3e887295	0.2664992
73	0x3e26b947	0.16281615
74	0x3e4a76a7	0.19771825
75	0x3e6a1f12	0.22863415
76	0x3d284573	0.041081857
77	0x3e0d9a55	0.13828404
78	0x3e828a2c	0.25496042
79	0x3d0f2de2	0.034955867
80	0x3e04aa5c	0.12955612
81	0x3e45e16e	0.19324276
82	0xbc4a6337	-0.012352756
83	0x3e7d8175	0.24756415
84	0x3d34f938	0.044182986
85	0x3d93ec82	0.07222845
86	0x3d3dafda	0.046310283
87	0x3dad0ca9	0.0844968
88	0xbd90f0f7	-0.070772104
89	0xbd385d76	-0.045011006
90	0x3e6b1a7b	0.2295932
91	0x3db28913	0.08717551
92	0x3e357b0f	0.17722724
93	0xbc17ae45	-0.009257858
94	0x3ead4258	0.3383968
95	0x3e399bfa	0.18125907
96	0xbb42b746	-0.002971129
97	0xbd8f761b	-0.07004949
98	0x3dbb5d70	0.09148681
99	0x3cbb75d4	0.022883333
100	0x3e477c77	0.19481073
101	0xbd06eac5	-0.032938737
102	0x3dc8f22e	0.09811817
103	0xbd2cc6f5	-0.042181928
104	0x3d2936b9	0.041311953
105	0x3dee940d	0.11649332
106	0xbdc25b1f	-0.09490036
107	0x3c3eb2ec	0.011639338
108	0x3e3a6bba	0.18205157
109	0x3e37f0ae	0.17962906
110	0x3e9d3b3f	0.30709264
111	0x3e87fbfc	0.26559436
112	0xbdf8eeb3	-0.12154903
113	0x3e29f0a2	0.165957
114	0x3eb23963	0.34809408
115	0x3e215998	0.15756834
116	0x3e4c51c5	0.19953068
117	0x3deab95e	0.11461137
118	0x3e291858	0.16513193
119	0x3d7849c1	0.060617212
120	0x3d5e861b	0.05432711
121	0x3d917fab	0.07104429
122	0x3e23b139	0.15985574
123	0x3d60c0e9	0.054871473
124	0x3eadabe9	0.3392022
125	0x3d80875b	0.06275817
126	0x3dc9d8da	0.09855814
127	0x3e5e7dfb	0.21727745
128	0xbe73b239	-0.23798455
129	0xbe09f3bb	-0.13471882
130	0xbe42f988	-0.19040501
131	0x3d5557de	0.05208575
132	0x3e29e8cf	0.16592716
133	0x3dd4a57f	0.103831284
134	0x3cdae7fe	0.02672195
135	0xbdbc0b39	-0.09181828
136	0x3d386dcd	0.04502659
137	0xbdee9ff2	-0.11651601
138	0xbe596c51	-0.21232726
139	0x3ce35ebc	0.027755134
140	0x3e499c77	0.19688593
141	0xbb0e2143	-0.0021687306
142	0x3dbeb9ee	0.09312807
143	0xbd350454	-0.04419358
144	0x3d83f8af	0.06443917
145	0xbd0986b0	-0.033575714
146	0x3e0df4a3	0.13862853
147	0x3d02dfc1	0.03195167
148	0xbe2ff5b6	-0.17183575
149	0x3dc67574	0.09690371
150	0xbe5d4410	-0.21607995
151	0x3d574ba6	0.05256238
152	0x3db90c17	0.09035509
153	0xbd5cbdb9	-0.05389187
154	0xba341a67	-0.00068703893
155	0x3c8abe37	0.016936405
156	0xbcf57507	-0.02996303
157	0x3dd2fddc	0.10302326
158	0x3d79af40	0.060958147
159	0xbd5d19e2	-0.053979762
160	0x3d81ac4d	0.06331692
161	0x3dbe2949	0.09285218
162	0x3e265cd7	0.16246353
163	0xbc2782fe	-0.010224102
164	0x3dab2aee	0.083577976
165	0x3ca4c3a1	0.020112814
166	0x3be92b09	0.007115726
167	0xbcef9b39	-0.02924882
168	0x3e374d44	0.17900568
169	0xbe0ae97f	-0.13565634
170	0x3e0731e3	0.13202624
171	0xbe00eab7	-0.12589537
172	0x3df44db8	0.11928886
173	0xbd704761	-0.058661822
174	0x3ca6e5cf	0.020373253
175	0x3d6091d2	0.054826565
176	0xbd820975	-0.0634946
177	0x3dcfbdb6	0.10143606
178	0x3d2c2db6	0.04203578
179	0x3d272d31	0.040814582
180	0xbe00a3d7	-0.125625
181	0x3e2c3726	0.16817912
182	0x3daef6d1	0.0854317
183	0xbde6673f	-0.112501614
184	0x3e1a0938	0.15042579
185	0xbbffcfdc	-0.007806761
186	0x3da0467f	0.07825946
187	0x3dd5ad56	0.10433452
188	0x3e3886db	0.18020193
189	0xbdf1dd75	-0.11809818
190	0x3e403e45	0.18773754
191	0x3ccbc977	0.02487634
192	0x3bb9b54b	0.0056673638
193	0x3e00ba7e	0.12571141
194	0xbdae8e56	-0.08523242
195	0x3e87c898	0.26520228
196	0xbd7381ca	-0.05944995
197	0x3d816045	0.0631719
198	0xbd6bc0f7	-0.057557072
199	0x3de526c9	0.11189038
200	0x3e63ef93	0.22259359
201	0x3e3c2615	0.18373902
202	0x3ce664aa	0.028124172
203	0x3dd113b9	0.1020884
204	0x3e418070	0.18896651
205	0xbc53cc5b	-0.01292714
206	0x3e026a21	0.12735797
207	0x3e3a2c21	0.18180896
208	0x3d67ac3a	0.056560732
209	0x3e4c6365	0.19959791
210	0x3ca328e3	0.019916957
211	0x3db00bc9	0.08595998
212	0x3d83666a	0.06416018
213	0x3dcc241c	0.09967825
214	0x3d7a8a9f	0.061167356
215	0x3e693367	0.22773515
216	0x3e608d69	0.21928944
217	0xbe023fd0	-0.12719655
218	0x3de68638	0.11256069
219	0x3e298a60	0.16556692
220	0xbc2961a9	-0.010338225
221	0x3dd04bc4	0.10170701
222	0xbe36ed25	-0.17863901
223	0xbbe547ee	-0.0069971
224	0x3e002638	0.1251458
225	0x3e86c245	0.2632009
226	0x3df93308	0.121679366
227	0x3d8d134a	0.06888445
228	0xbc694c2f	-0.014239355
229	0x3e1fbbb8	0.15598953
230	0xbd8cba41	-0.068714626
231	0x3e553303	0.2082024
232	0x3e870602	0.2637177
233	0xbe1696bb	-0.14705937
234	0x3e547bf8	0.20750415
235	0x3dea70f4	0.11447325
236	0x3d5c7267	0.05382004
237	0x3e45a594	0.19301444
238	0xbde66e82	-0.112515464
239	0x3da39443	0.07987263
240	0x3dd32f3f	0.10311746
241	0x3e54b573	0.20772342
242	0x3b8e035d	0.004333897
243	0x3da33eea	0.07970984
244	0x3d02a9e9	0.03190032
245	0x3e5de374	0.21668798
246	0x3e4fb2cb	0.20283048
247	0xbd9c3077	-0.076264314
248	0x3e4805f9	0.19533528
249	0xbe31909d	-0.17340322
250	0xbe331db0	-0.17491794
251	0x3ddd0bf7	0.10793298
252	0x3e8e58df	0.27802178
253	0x3d9f29b5	0.07771627
254	0x3d11296b	0.03543989
255	0x3bf2ed28	0.007413525
