Twilight_Image Enhancement Modules/Bread/checkpoints/FuseNet_MECAN_251.pth (torch, 895263 bytes, 57 tensors)

inc.conv.conv.0.weight f4 [32, 4, 3, 3]
000000 10 54 55 bd 6a 6b 81 3d 6d 06 84 3d 5e 79 dd bc
       -0.05208212 0.06319316 0.06446538 -0.027035411
000010 e5 bf cf bc 84 1b c0 3d 6b 70 b9 3d 71 11 38 bd
       -0.025360057 0.09380248 0.09054645 -0.04493851
000020 e0 a5 4a bd d8 91 9c 3d e8 86 d9 3c c8 53 31 be
       -0.049474597 0.07645005 0.026553586 -0.17317116
000030 6e 62 65 3d a4 5e 3a bd 44 24 1d be 7b c6 87 bd
       0.056002073 -0.045500413 -0.15345865 -0.06629654
000040 56 d8 91 3d e4 08 17 be 30 03 37 be 5f 49 94 3d
       0.07121341 -0.14749485 -0.1787231 0.07240557
000050 d4 37 ba 3d c7 f3 10 bd 17 e8 d7 3c 2e e7 c4 bd
       0.090926796 -0.035388734 0.026355786 -0.096144065
000060 74 61 dc 3d 47 ec 3b be a1 16 c6 bd c4 6d a9 3d
       0.10760775 -0.18351851 -0.09672285 0.08272889
000070 ed 5f 36 be 72 15 19 3d d7 f9 23 be 96 15 e4 bc
       -0.1781003 0.037373967 -0.16013275 -0.027842324
000080 db 7b 8b bd 9c fe af 3d a4 f0 e0 bd cd 36 1a bd
       -0.06810733 0.08593485 -0.109833986 -0.03764992
000090 5b 43 ee 3d ac b0 36 bd 69 fd 9f 3d e9 73 9e 3d
       0.11633941 -0.04460208 0.07812006 0.07736952
0000a0 d5 be c1 bd 27 f2 8c bc 69 4d ff 3d da fa ae 3d
       -0.094602264 -0.017205311 0.12465937 0.0854394
0000b0 f7 52 2d be 6b e5 3c be b5 c6 a6 ba dd 56 35 be
       -0.1692618 -0.18446891 -0.0012724014 -0.17708917
0000c0 8a e7 bb 3c 92 5a 61 3d e2 76 ad bc e6 e2 95 bd
       0.022937555 0.055018015 -0.021174852 -0.07318668
0000d0 d1 aa 49 bd 70 7a a6 bd 4e fc cd bc db e4 cb bd
       -0.04923517 -0.08128822 -0.025144722 -0.0995576
0000e0 17 2e 01 be 53 ce 58 be 40 6a a9 bd 7e 6c 7f be
       -0.12615238 -0.21172456 -0.08272219 -0.2494373
0000f0 4c 0f 19 3c 79 fe 30 bb f4 56 d9 bd fc 50 70 3d
       0.009342026 -0.0027007146 -0.10612288 0.058670983
000100 69 4c 23 bd 22 5e b3 3b 36 90 1a 3d 4c 9e 9f bd
       -0.039867792 0.005473868 0.037735187 -0.077938646
000110 e6 29 1e 3d 19 15 cb bd 8b df a1 3d 36 65 6d be
       0.038614176 -0.099161334 0.079039656 -0.2318314
000120 8a f1 de 3d ce 67 8b be fa 16 f6 3d 8e e8 d0 3c
       0.10885914 -0.27227634 0.12016101 0.025501516
000130 33 f5 06 be f3 a8 2d bc f3 bf a2 be 21 8b 47 3e
       -0.13179474 -0.010599363 -0.3178707 0.19486667
000140 cd 17 70 3d 8d 74 e4 be 65 df 11 be d8 8a 50 bd
       0.05861645 -0.4462017 -0.14245375 -0.05091366
000150 a8 15 08 bf b7 26 00 be 2c 3f ad 3c 70 d6 0f bf
       -0.53158045 -0.12514769 0.021148287 -0.5618658
000160 76 4a 1f bd 77 ed 99 bd 73 72 fb bd 84 ac 88 3d
       -0.03888937 -0.07515996 -0.12277689 0.0667353
000170 52 29 a8 3e 59 5b a4 be cc a3 d0 3e fb 1c a7 3e
       0.32844025 -0.32100943 0.40749967 0.32639298
000180 a3 d8 35 be 99 aa cb 3e 1b e8 eb 3e 0d b7 0f bf
       -0.17758422 0.39778593 0.4607552 -0.5613869
000190 33 e9 bc 3d a3 40 30 be 30 d6 d0 be de b7 c9 3e
       0.09224167 -0.17212157 -0.40788412 0.39398092
0001a0 92 0d ae 3d 05 08 d2 be be ef 84 bd 47 c4 6d be
       0.08498682 -0.41021743 -0.0649104 -0.23219405
0001b0 d7 65 e3 3d 29 88 b4 bc 5c 05 26 3e f7 f5 3d 3e
       0.11103409 -0.022037582 0.16212982 0.1855086
0001c0 ae 55 74 3d c1 61 b9 3d 99 19 dd 3d 4c d2 83 bd
       0.059652023 0.09051848 0.10795898 -0.06436595
0001d0 55 44 82 3e 4f af 0f 3e 73 08 77 3e 80 72 44 3e
       0.25442758 0.14031719 0.24124317 0.19184303
0001e0 31 a3 b1 3e 5d ed 71 3e 12 01 82 3e 9c e7 2d 3e
       0.34694818 0.23625703 0.25391442 0.16982883
0001f0 d0 90 51 3e 1e 39 5f 3e d8 69 f5 bd 78 c3 44 bd
       0.20465398 0.21799132 -0.11983079 -0.048037976
000200 d8 06 44 3d 43 6b 4b bd 99 0b 21 3e 9c 93 74 3d
       0.04785809 -0.04966284 0.1572708 0.059711084
000210 64 2d 4e 3e b3 ed 31 3e 63 1f e7 bd 5f 8d a2 bd
       0.20134503 0.17375831 -0.112852834 -0.07937121
000220 5e d2 b4 be 00 74 58 3d 01 9e 4e be dc 16 b5 be
       -0.35316747 0.052845 -0.20177461 -0.35369003
000230 2c 08 b6 be 3b 34 0d be 51 6b 2f be 6d 6a 37 be
       -0.3555311 -0.13789456 -0.17130782 -0.17911692
000240 e6 ed 0c be 60 90 e1 3d 22 b8 f9 bd e8 db 59 3c
       -0.13762626 0.110138655 -0.12193324 0.013297059
000250 2c 8b 9b 3e 86 30 45 be 19 86 af bd 34 4d 2f 3e
       0.30379617 -0.19256791 -0.08570499 0.17119294
000260 07 f7 92 bd 83 61 a3 3d ad bd 09 3c e6 07 8d be
       -0.07176023 0.07977583 0.008407039 -0.2754509
000270 7a 46 3f 3e 93 d6 4a 3e be 15 9a be a2 bd 90 3e
       0.18679228 0.19808416 -0.30094713 0.28269678
000280 c2 14 0e 3e ee 36 1c be 0f ba 8c 3e c5 23 86 3e
       0.13875106 -0.15255329 0.274857 0.26199165
000290 16 13 b0 bd 19 c9 e2 3d 07 41 96 3d d9 21 73 be
       -0.0859739 0.110735126 0.07336622 -0.2374338
0002a0 78 d6 2a 3e d0 dc f0 3c 51 09 39 be 5b 7d 42 3e
       0.16683376 0.029402167 -0.1806996 0.18993132
0002b0 93 87 fa 3e 67 a4 9f be a8 2d 5f 3e 19 2e 0c 3f
       0.4893156 -0.31180117 0.2179476 0.5475784
0002c0 13 b1 5d bf 5e 83 27 bc aa e6 72 3e 26 20 e8 be
       -0.8659832 -0.0102241915 0.23720804 -0.45337027
0002d0 d4 ae e7 3d 9b 57 ac 3d 22 a6 d3 3d 2f 10 18 be
       0.11312643 0.08415147 0.10334422 -0.14849924
0002e0 f6 12 2b be 11 47 8e 3d 92 a2 43 3d f2 b4 6b bd
       -0.16706452 0.069471486 0.04776246 -0.05754561
0002f0 42 06 a9 3d ed f3 e3 bd 12 59 e4 be 0f 98 68 be
       0.08253147 -0.111305095 -0.44599205 -0.22714256
000300 f5 c5 d6 be 94 e8 c9 be a2 5b f1 bd ed 1f bf be
       -0.41947904 -0.39435256 -0.11785056 -0.37329045
000310 05 18 d9 bd 1f df 9a be af 0e b1 3e e7 bd fe 3e
       -0.106002845 -0.30248353 0.34581515 0.4975426
000320 2b bf f4 3e f1 f7 d6 3e ff d5 0a 3f 35 e3 0b 3f
       0.478021 0.4198604 0.5423278 0.54643565
000330 c6 1c 8f 3e ba 01 ef 3e 28 c3 e3 3e e5 71 51 3d
       0.2795164 0.46681005 0.4448483 0.05113401
000340 9e 6c 30 3d 60 43 5b 3d d5 f9 ee bd 8a e9 c6 bd
       0.043072335 0.05353105 -0.116687454 -0.09712513
000350 5d ae 15 3e b6 14 e8 3d 19 6b 0f bd df 8e 8c bd
       0.14617296 0.11332075 -0.035014246 -0.06863188
000360 ad 20 44 be 70 c9 96 be 1a 85 27 bd 7e 59 03 be
       -0.1915309 -0.2945056 -0.04089842 -0.12827107
000370 e6 73 80 3e 54 7d 95 3d d7 a1 83 3e 02 70 a3 bd
       0.25088423 0.07299295 0.25709412 -0.07980348
000380 99 b0 fc 3d ad 5b 31 bf bd b0 f0 be 79 27 f8 be
       0.12338371 -0.6928051 -0.4700984 -0.48467615
000390 a0 5f 5e 3d e9 3e a7 bd a3 df 83 3e fd 1f 0a 3e
       0.054290414 -0.08166296 0.2575656 0.13488765
0003a0 e8 b6 26 3e ce e9 b4 3e 7f b7 a7 be 3d f1 bc be
       0.1628071 0.3533463 -0.32757184 -0.369028
0003b0 fc e2 57 be 31 c9 a6 3e 09 5c ed 3e 31 04 1e 3e
       -0.21082681 0.32575372 0.4635928 0.15431286
0003c0 66 f8 da 3e 3e f1 65 3e 8b 50 c5 3e 57 0b a0 be
       0.42767638 0.22455308 0.38538012 -0.31258652
0003d0 2a 71 5b bf c7 b5 08 be 51 d3 2f 3e 99 dd 97 3e
       -0.8571955 -0.13350593 0.17170455 0.29661253
0003e0 a1 8f 03 3f 95 3a 0a 3e 88 b0 03 3e f6 94 64 be
       0.51391035 0.1349891 0.1286031 -0.22322449
0003f0 86 32 c4 bd fb 69 9f 3d ed ef b3 bd 0d e8 43 bd
       -0.09579949 0.07783886 -0.087859966 -0.047828723

inc.conv.conv.0.bias f4 [32]
000000 2a ca 4c be 42 4c 1e be 86 da a7 3e b0 a9 f9 bd
       -0.19998994 -0.15458778 0.32783908 -0.121905684
000010 1c a6 9c be 4f 0b 0d bf a3 90 3e be 44 e8 eb bd
       -0.3059548 -0.5509538 -0.18609862 -0.115189105
000020 04 71 2e be 9f f4 3a be 9c 9a ab 3e b4 f3 82 bf
       -0.170353 -0.18257378 0.33516395 -1.0230622
000030 0d 9b 8a bd 5b 1c d9 ba de af 8d be 14 4a dc bd
       -0.06767855 -0.0016564237 -0.2767324 -0.10756317
000040 ac 76 14 3f 42 28 a5 bc 59 53 85 bf 3a f2 b2 be
       0.5799358 -0.020160798 -1.0416061 -0.3495043
000050 be ac a3 3e 72 31 a2 3f ef c2 af bd f7 f6 5b 3d
       0.3196773 1.267134 -0.085821025 0.05370232
000060 3d cd 23 be f2 c4 1a 3f 9a 32 88 3e b1 fb b8 3e
       -0.15996261 0.60456765 0.26601106 0.36129525
000070 91 e3 53 3f 38 a2 a4 bd af 48 69 bd 8f 27 d0 3e
       0.82769114 -0.08038753 -0.056954082 0.4065518

inc.conv.conv.3.weight f4 [32, 32, 3, 3]
000000 bf 31 c6 bb a2 bc 5e bd 48 02 97 3b 56 ec f9 bc
       -0.0060484107 -0.054379113 0.0046084262 -0.030508202
000010 1f 3e 94 bb 49 48 96 bd ec 2d 41 bd 63 d7 8c bd
       -0.004524007 -0.07338006 -0.047162935 -0.06877019
000020 01 3e 6a 3b 31 20 9f 3c 17 d7 a6 3d 80 da 37 3d
       0.0035742524 0.01942453 0.08146494 0.044886112
000030 a6 9d 77 3d e4 a5 52 bc 0f 70 d1 ba 7a 1c 72 3d
       0.06045308 -0.012856934 -0.0015978831 0.05910919
000040 ea 1e 80 3d ae 1d d1 3d ac ae e9 bd 47 18 9b 3e
       0.062558964 0.10210739 -0.11410269 0.3029196
000050 6e c2 bd be 7f 41 1c be 0c f1 57 3e 2a 7a fa be
       -0.370624 -0.1525936 0.21088046 -0.4892133
000060 5a 0b b6 be 25 28 61 3e 0e 07 8c bf df fe 5f 3f
       -0.35555536 0.2198797 -1.0939653 0.8749828
000070 c9 cf 50 bf 4c 31 af 3d e1 68 65 3e be 81 9a bf
       -0.81567055 0.085543245 0.2240329 -1.2070844
000080 99 0c c9 be 53 04 86 3f 0c a8 2d bf f5 d4 f4 3e
       -0.39267424 1.047007 -0.67834544 0.47818723
000090 30 39 f2 3d cd e9 cb 3e 03 e0 fb 3c 60 80 f5 be
       0.11827314 0.39826813 0.030746466 -0.47949505
0000a0 7a 17 71 be a2 35 4a be 28 42 f1 bd 74 2d cb 3e
       -0.23544112 -0.19747022 -0.117801964 0.39683115
0000b0 1c 71 12 3d 85 41 94 be 5e d0 db bd 4d 53 13 be
       0.0357524 -0.28956237 -0.10733102 -0.14387245
0000c0 07 7c 34 be f6 13 21 bd bf 3d 27 be 5d 8d 2c be
       -0.17625438 -0.039325677 -0.16332148 -0.16850801
0000d0 e9 02 35 be 3c d4 0b be 39 6b 17 bf 1f 94 63 bd
       -0.17676891 -0.1365518 -0.59147984 -0.05556118
0000e0 9e 76 37 bd 88 b6 07 be cc bb 53 be a4 3e 9f bd
       -0.044790857 -0.13253224 -0.20677108 -0.077756196
0000f0 c6 bf 15 bf 2d e2 8d bf 83 02 d4 bd dd 6a 61 bd
       -0.5849575 -1.1084648 -0.103520416 -0.055033553
000100 6f 75 45 bd 15 f0 a1 bd f1 13 a2 bc 9f e8 23 bb
       -0.048207697 -0.0790712 -0.0197849 -0.002501048
000110 0a f4 fd bb 70 6a ca 3b db 11 50 bd 0d ae b8 3b
       -0.007750039 0.006177239 -0.05079828 0.005635983
000120 b5 a2 8a bf 56 d3 03 bf 84 c9 27 bf 6c 4f 6a bf
       -1.0830904 -0.5149435 -0.65541863 -0.9152744
000130 7d 38 3a be 7d 5a 29 bf 7b ff 3a bf 5c cc 96 bf
       -0.18185611 -0.661537 -0.7304608 -1.1781116
000140 ed c4 48 bf 13 c4 d5 3c 56 61 f8 3c be c5 12 3c
       -0.78425485 0.026094472 0.03031985 0.008958278
000150 ae 50 87 3b 04 48 a0 bc 1a 07 54 3d e6 ed 9b 3d
       0.004129491 -0.01956559 0.051764585 0.07613735
000160 80 51 aa 3c ff 93 8c 3d 5a 07 32 be 97 4d 50 be
       0.020790815 0.068641655 -0.17385617 -0.20342098
000170 ac 20 a2 be 69 f0 10 3c 0d 38 58 bd 69 09 43 be
       -0.31665552 0.008846381 -0.05278783 -0.19046558
000180 e7 1e f0 3d 12 1a 8a bd 7b 70 fa bc 85 46 c8 3d
       0.11724644 -0.06743254 -0.030571213 0.097790755
000190 d3 60 d1 bc be dc 79 3e 6f 27 04 be a0 c4 82 be
       -0.025558865 0.24400613 -0.12905668 -0.25540638
0001a0 aa 87 53 bd 65 b1 ed bd 10 db 28 be a3 82 b0 3d
       -0.05164305 -0.11606101 -0.16489816 0.08618667
0001b0 16 2c e4 bc c7 71 c3 3d 94 d0 37 3d b7 8f 46 3e
       -0.027853053 0.09543186 0.04487665 0.1939076
0001c0 78 54 47 3e 68 4b 37 3e 6a e8 b7 3d 08 e7 24 3d
       0.19465816 0.17899859 0.08979876 0.04025939
0001d0 96 86 7d 3d 77 7b f4 bc f2 12 6c 3c 8a 6f c7 bc
       0.06189593 -0.029844029 0.014408814 -0.024345178
0001e0 ad d2 17 bd 07 3d 1e bc b7 d4 40 3c 3b 86 1f bd
       -0.03706615 -0.009658105 0.011769465 -0.03894637
0001f0 d7 03 17 3d 90 4a 2b bd da 89 a0 3f 54 ba 95 3f
       0.036868896 -0.041819155 1.2542069 1.1697488
000200 cd fb 4d be f9 87 aa 3f 24 cb 8d 3f 5d 03 87 be
       -0.20115586 1.3322746 1.1077619 -0.26369753
000210 29 16 73 3f 78 bd 07 3f bc 5e 5f be 23 94 21 3e
       0.9495569 0.5302348 -0.21813482 0.15779166
000220 5b c3 08 3e 79 7c 32 3e 9a 96 9f 3d 65 79 11 3e
       0.13355772 0.17430295 0.07792397 0.14206465
000230 36 38 19 3e a8 dd 50 3d 58 51 12 3e f7 31 19 3e
       0.14962849 0.050992638 0.14288843 0.14960466
000240 7d 59 b2 3d 8a c0 0c 3e 3d 0e 88 3d f7 ef 2a 3e
       0.08708475 0.13745323 0.06643341 0.16693102
000250 ae 52 bf 3e 5e e8 61 3e ba 60 4d 3e ed 11 9c 3e
       0.37367767 0.22061297 0.2005643 0.30482426
000260 e6 39 0f 3e 55 95 86 3c 90 bc 2d 3c 21 a3 58 3d
       0.1398693 0.016428629 0.010604039 0.052889947
000270 48 f6 af bc eb 91 40 bd 41 a4 18 3d 2b 7c 30 bd
       -0.02147974 -0.04701416 0.03726602 -0.043087166
000280 2a 0b 13 3c c8 6b 63 bd c7 34 9b be ca 6c e9 be
       0.00897483 -0.05552271 -0.30313703 -0.45590812
000290 82 1d 5d be c0 c0 12 bf aa 1b 03 bf 06 2c be be
       -0.21593288 -0.57325363 -0.51214087 -0.37142962
0002a0 08 7d f9 be 7d 1c 09 bf 37 f9 c8 be 70 06 eb be
       -0.48728204 -0.53559095 -0.39252636 -0.4590335
0002b0 fa 0e 0b bf 80 d7 b4 be 7b a4 96 bd e6 95 16 bd
       -0.5431973 -0.35320663 -0.07355591 -0.036764048
0002c0 2b 9a 04 3d f9 6a c7 bc 43 55 e1 39 83 56 85 3d
       0.03237359 -0.024343 0.0004297887 0.065106414
0002d0 50 50 98 be eb 76 bc be 57 32 13 bf 74 fc 08 bc
       -0.29748774 -0.36809477 -0.5749869 -0.008360971
0002e0 65 ce 13 be 62 7e b3 be 62 0b 4f 3e fe 32 0b 3d
       -0.14434202 -0.3505736 0.20219186 0.033984177
0002f0 a2 da d8 bd 48 72 72 3e 13 2d c3 3e 70 ed 56 3e
       -0.10588576 0.23676407 0.38120326 0.20989013
000300 db 06 94 3e 8c 4c a7 3e 53 4b 7c 3e ce b6 0a 3e
       0.2891148 0.32675588 0.24638109 0.13546297
000310 5a f3 69 3e 1e 6e 39 3e 65 e3 13 3d f3 55 d0 3b
       0.22846738 0.18108413 0.036105532 0.006357902
000320 56 69 16 3d f4 50 4b bd 0a 14 2e 3d 86 f6 0c 3c
       0.03672155 -0.04963775 0.04249958 0.008603698
000330 b0 87 c6 bc bd 2d 30 bd 26 d9 b7 3c c6 70 98 3e
       -0.024234623 -0.04301237 0.022442412 0.2977354
000340 ea d3 2b 3e 35 e6 4c 3e a4 f9 91 3d be 01 12 bd
       0.16780058 0.20009692 0.07127693 -0.035646193
000350 62 b3 b7 3d bd 92 d3 3d 56 b5 21 bb 73 b6 b0 3d
       0.089697614 0.103307225 -0.0024674735 0.086285494
000360 ec 45 8f bc 9d 05 08 bd f9 87 ae 3c 6a 3b 49 3d
       -0.017489396 -0.03320848 0.021305071 0.049128927
000370 14 78 61 3d 3a 69 01 bd 16 ba 27 3d ee c8 51 bd
       0.055046156 -0.031594492 0.04094895 -0.051217012
000380 5f b6 90 bc 78 7e c1 3d 5f 60 70 3e 40 57 a2 3d
       -0.017665086 0.0944795 0.23474263 0.07926798
000390 77 88 92 3e aa 6c 83 be c3 de cb be 77 e7 dc 3e
       0.2861974 -0.25668842 -0.3981839 0.43145344
0003a0 e4 f0 95 3d d0 16 31 3f 13 fa 28 bd 6a 47 06 be
       0.07321337 0.69175434 -0.041254114 -0.1311318
0003b0 f4 6e 12 3f c3 2f 7e 3d e1 b7 0e bf c3 05 9e 3b
       0.5720055 0.062057268 -0.55749327 0.004822464
0003c0 4f 2d a6 bc 4e 97 c8 be 9f 39 52 bd 54 30 dd bd
       -0.020285277 -0.39177936 -0.051324483 -0.108002335
0003d0 a0 40 30 be 2c 0a af bd 95 7a 8d bc 70 01 8e bd
       -0.17212152 -0.08546862 -0.017270366 -0.06933868
0003e0 51 e2 87 bd 95 54 03 bc 72 a8 22 bd 50 fa a0 bd
       -0.06634963 -0.008015771 -0.039711423 -0.07860243
0003f0 d8 47 4f bf 91 de 86 bf db 02 38 c0 86 b9 1e bc
       -0.80969 -1.0536672 -2.8751743 -0.009687787

inc.conv.conv.3.bias f4 [32]
000000 2e b1 57 3e 45 20 dd bd 21 6e ff 3e fd ec 4f 3f
       0.21063682 -0.107971705 0.4988871 0.8122099
000010 38 a1 80 bd 5d a5 f8 bd 77 a0 32 3e 16 6a 58 bf
       -0.0628075 -0.121409155 0.17444025 -0.84536874
000020 0a 2c 42 3e 8e 41 6d bd 89 f2 e2 be 73 34 3e be
       0.18962112 -0.057923846 -0.44325665 -0.18574695
000030 2c fc e9 be 3e 7f 38 bd e6 93 5b 3e 4d f8 01 bf
       -0.45700204 -0.045043223 0.21443138 -0.507695
000040 5a d1 8b be d1 67 0a 3e b5 53 8c 3d 63 2f d5 ba
       -0.2730816 0.13516165 0.06851903 -0.0016264733
000050 af 01 e7 be 48 a4 68 3e 04 fb 6c 3d 1d 91 bd be
       -0.45118472 0.22718918 0.057856575 -0.37024775
000060 70 c7 da be 4d e6 6c be 2b 68 c0 bb 79 04 60 bf
       -0.42730284 -0.23134728 -0.005871793 -0.87506825
000070 7a f6 2a bf c3 f2 3b bc cd 6b 9b bd ba 5c 8c bf
       -0.66782343 -0.011471453 -0.07588921 -1.0965798

inc.attention.0.ca.0.weight f4 [4, 32, 1, 1]
000000 2a a6 26 be 01 f5 15 be a5 80 49 3e 52 9b f3 be
       -0.16274324 -0.14644243 0.1967798 -0.47579437
000010 27 f8 b6 bd 13 8f ba 3d da b3 6a be cc 80 80 3e
       -0.0893405 0.091093205 -0.2292017 0.25098264
000020 e7 94 77 be 6b e3 92 3f 4d ad 1c 3f 55 fd e0 3e
       -0.24177895 1.1475652 0.61201936 0.43943277
000030 5b 00 9c 3e b6 d7 aa 3d 57 28 1e bf 85 b3 7a be
       0.3046902 0.08341925 -0.61780304 -0.24482544
000040 23 a7 8b 3e d9 25 63 3f 92 46 9e 3e e9 36 9f bd
       0.27275953 0.88729626 0.30913216 -0.07774145
000050 1a 31 21 3d 0d 2f 74 be 99 64 13 be 11 d3 79 be
       0.039353468 -0.23846073 -0.14393844 -0.24396922
000060 31 c9 08 3d 1a 3f 99 bb 1d 3b 8e 3d 66 4d 3c bc
       0.033394996 -0.0046767117 0.06944869 -0.011493063
000070 03 e0 be bc 24 10 a9 3d 16 a2 f6 bd ff 08 0f 3f
       -0.023300176 0.08255032 -0.12042634 0.558731
000080 68 9f 9d be bf 47 a5 bd 72 d7 ff 3d 18 33 62 3f
       -0.3078568 -0.08070325 0.12492265 0.8835921
000090 2b f1 dc 3d d6 c6 c2 bd c2 b0 fc be 23 cc 1e 3e
       0.10788187 -0.09510581 -0.49353606 0.1550756
0000a0 ca 29 05 be d3 5d 4b bf 1f ab 64 bf ef 08 53 3e
       -0.13004223 -0.7944004 -0.8932361 0.20608877
0000b0 57 93 1f bf ad 7a 22 bd 25 c0 29 3e 55 a3 2d 3f
       -0.623342 -0.039667774 0.16577204 0.6782735
0000c0 66 56 a8 3d b1 79 a4 be b4 f6 9f 3c 8e 00 34 bd
       0.08219604 -0.32124093 0.019526817 -0.04394584
0000d0 5e 29 5f 3e 29 0e 53 be a7 cf b4 bd 18 d5 d3 3e
       0.21793124 -0.2061087 -0.08828669 0.41373515
0000e0 2d 3d 09 3e eb b0 2d 3f 13 24 a7 bd 3f 5a 1b 3e
       0.13402243 0.6784808 -0.081611775 0.15171145
0000f0 dc a5 1b 3e 5a 13 21 be c3 93 ec bd b0 1e d7 3e
       0.15199989 -0.15730038 -0.11551621 0.420156
000100 fa 50 ec 3e 35 fb 1c 3e fb 65 5e be 82 18 65 3f
       0.4615553 0.15330203 -0.2171859 0.8949052
000110 4d 72 01 3c 1d 8b 1e bd ce 59 c5 be 78 e4 c3 3c
       0.007900787 -0.038706888 -0.38545078 0.023912653
000120 ec ed d2 bd 8c fc 9a bf f5 a3 94 bd b4 4b eb 3d
       -0.10299286 -1.2108321 -0.07257835 0.114890486
000130 be b0 26 3d 83 b3 31 3e 77 0a 00 3e 97 d5 14 3f
       0.0406959 0.17353635 0.12503992 0.5813841
000140 31 5d 26 3f 3a cf 28 bf 58 b6 3d bc 9d a0 cb 3d
       0.6498595 -0.659412 -0.011579119 0.09942744
000150 da 64 c9 be 95 23 29 bc d3 40 4d 3e 80 33 25 3f
       -0.39334756 -0.010323425 0.2004426 0.6453171
000160 24 5f d6 3d 0e 94 37 3e 2a 9c df bd 6c f8 78 3d
       0.104673654 0.17927572 -0.10918458 0.06078379
000170 52 57 db 3d 04 95 43 3c 3d a2 b0 bc 43 69 54 3e
       0.107100144 0.011937384 -0.021561736 0.20743279
000180 fd ae 82 be 09 c5 cd 3d 0c 43 03 3d 43 c9 d3 bc
       -0.2552413 0.10047347 0.032046363 -0.025852805
000190 9e d4 95 3d c1 6d 4c 3c 8e cd 05 be 73 39 c3 3e
       0.07315944 0.012477339 -0.13066694 0.38129768
0001a0 0c 23 b2 bc 34 22 7c 3d 8a 49 ba 3e c7 c4 08 3f
       -0.021745227 0.061556056 0.3638423 0.5342526
0001b0 b6 b6 0a bf dd d3 23 3b 8b 1d c3 bf 3f bd e4 be
       -0.54185045 0.0024998107 -1.5243391 -0.44675633
0001c0 dc e4 8d be a0 04 d0 be 1e 7b 06 bf 42 61 13 bd
       -0.27713668 -0.4062853 -0.5253161 -0.035981424
0001d0 8a 34 df 3d 8b 02 e5 bd cb 0a 8c 3d 75 b8 f4 3d
       0.10898693 -0.11182126 0.06837996 0.11949245
0001e0 18 51 fe 3e ed a4 88 3c 15 38 90 bd 81 b7 5b 3e
       0.49671245 0.016680205 -0.07041947 0.2145672
0001f0 ba 94 d2 bd a5 b8 47 3d 1b 0e 2d be e7 80 64 3f
       -0.102822736 0.048760075 -0.16899912 0.8925919

inc.attention.0.ca.0.bias f4 [4]
000000 d0 6a fe 3e b6 37 2b 3e 2c 7a 57 3e 7f 21 68 bd
       0.49690866 0.16720471 0.21042699 -0.05667257

inc.attention.0.ca.2.weight f4 [32, 4, 1, 1]
000000 ed 26 f5 be fc 6d a6 3d c9 72 73 be cb 19 37 bf
       -0.4788126 0.081264466 -0.23774256 -0.7152373
000010 d3 22 db be 17 bf d3 be 0f 04 d1 be c1 cb cc 3e
       -0.42800006 -0.41356727 -0.4082341 0.39999202
000020 65 b8 b8 be 53 f6 6f 3e 29 76 6e bf 02 d8 96 3c
       -0.36078182 0.23433809 -0.9314905 0.018413547
000030 57 da e8 3d df 03 02 be ba ef da be b7 be 76 bb
       0.1136977 -0.12696789 -0.42761022 -0.0037650296
000040 ca 25 78 be d4 9b 88 3e 2b 32 98 be d6 41 b7 3c
       -0.24233165 0.26681387 -0.29725775 0.02237026
000050 bc 6f e1 be 7a 14 e1 be c1 e8 fb 3e 3b cc 1f 3d
       -0.4403056 -0.43960935 0.49201015 0.03901313
000060 d9 0f 6f bf 7d 78 10 3d 99 cd a6 be 10 38 99 be
       -0.93383557 0.035271157 -0.32578734 -0.29925585
000070 21 43 f4 bd b0 18 ab be 1c 81 34 be 51 34 98 bf
       -0.11926866 -0.33417273 -0.17627376 -1.1890966
000080 1e 01 d8 be 2c aa a2 be 33 cb 35 be 28 df 02 bf
       -0.42188352 -0.31770456 -0.17753296 -0.5112176
000090 09 4a a6 be 54 ca 0e bf 47 5b 49 bd 25 e1 ff be
       -0.3247836 -0.5577748 -0.049159314 -0.4997646
0000a0 f8 98 29 bf 70 16 0f bf 6f 26 d6 be aa f9 62 bf
       -0.66249037 -0.5589361 -0.41826198 -0.8866221
0000b0 07 4d db bd 5c a1 b6 be 80 cd 9d be 6c 23 ef 3e
       -0.10708051 -0.35669982 -0.30820847 0.46706712
0000c0 68 d1 d1 3d 60 b7 eb be 48 71 ff 3c 83 f3 e5 be
       0.10245019 -0.46038342 0.031181946 -0.44912347
0000d0 df a9 24 3e 38 9f a8 3e 3b bb c9 be fc a2 af 3e
       0.16080426 0.32933974 -0.39400658 0.34304035
0000e0 5d 08 9e 3e 0f 4d 02 bf 80 2c 25 3d 91 be 06 3f
       0.30865756 -0.5089883 0.04032564 0.5263453
0000f0 8f 16 1d bf bb ef e9 bd 55 71 d4 3d 40 61 3d be
       -0.61362547 -0.11422678 0.10373179 -0.18494129
000100 fc c1 a5 be 45 f8 62 bf 7a d8 26 bd f4 56 b3 3d
       -0.3237456 -0.8866008 -0.040733792 0.08756819
000110 3f 3e 68 3e db 7b 92 be c2 16 24 be 50 c0 34 bf
       0.22679995 -0.2861012 -0.16024306 -0.70605946
000120 d8 a4 1b 3f 42 5b 21 bf 57 ff 41 bc f9 ac 22 bf
       0.60798407 -0.63029873 -0.011840663 -0.63545185
000130 94 e0 db 3e 51 31 9e 3e d9 69 43 3e 9f fb 24 be
       0.42944777 0.30897 0.19083346 -0.16111611
000140 bc c1 43 bf 64 81 d6 3d f8 4e cc be c7 17 33 3e
       -0.7646749 0.10473898 -0.39903998 0.17489539
000150 e5 25 35 bf ac 3e 19 3e 64 29 88 bd be 52 9b be
       -0.7076095 0.14965314 -0.0664852 -0.30336565
000160 2a 51 90 be 1a 54 f4 3d f4 fc 1a bf 96 41 82 3e
       -0.28186923 0.119301036 -0.60542226 0.25440663
000170 40 ae e9 3e 36 70 f9 be 8d 26 1a bf 89 ea 2f bf
       0.45640755 -0.48718423 -0.60215074 -0.6871725
000180 fd 65 c9 3c e3 ae 84 bd 14 74 dc be c8 92 91 3e
       0.024584765 -0.064786695 -0.4305731 0.28432298
000190 77 b3 20 be b9 46 b9 3e b0 59 b4 be e3 9f 77 bc
       -0.1569346 0.3618677 -0.35224676 -0.015113804
0001a0 49 16 e5 be 84 4a 91 3c 9e 4c 1f be 65 0d 11 be
       -0.44743565 0.017735727 -0.15556571 -0.14165266
0001b0 0c b3 32 be f0 10 90 be 16 5f ee 3e 69 69 c6 bd
       -0.17451113 -0.28137922 0.4655692 -0.09688074
0001c0 49 02 e6 bd 90 b7 df be 8e 60 be be 6b d5 ee 3d
       -0.112309046 -0.43694735 -0.3718304 0.116618
0001d0 0d 44 51 3d 85 2f 70 3e 2c bf bc 3a 27 f7 83 3e
       0.05109029 0.23455627 0.0014400235 0.257745
0001e0 5a 42 9b 3e e8 9d c7 be ca 37 83 3e b2 7b c8 bc
       0.3032406 -0.3898766 0.256285 -0.024473045
0001f0 64 cf 1b 3c da 8d 39 3e 7b 2f 87 3d 73 3b d9 be
       0.009509895 0.18120518 0.06600853 -0.4242817

inc.attention.0.ca.2.bias f4 [32]
000000 18 16 18 be 96 ae 16 be eb 79 99 bf 7e 6f 2d be
       -0.14852178 -0.14715037 -1.1990331 -0.16937062
000010 35 57 e6 3d 87 b3 b5 bd ff 50 5e bd b7 fa 70 3e
       0.11247102 -0.08872133 -0.054276463 0.2353314
000020 97 c0 63 bc 72 52 3f 3c 69 f8 7c 3d 56 a9 d8 bd
       -0.013900897 0.011677371 0.06176034 -0.10579173
000030 37 7a 52 3e 61 14 82 be 48 69 f6 be 93 e1 75 bd
       0.20554434 -0.25406173 -0.48127198 -0.060029577
000040 bc e9 a4 be 49 52 3d bf 74 10 84 bf 54 9b e3 3d
       -0.32209575 -0.7395368 -1.0317521 0.11113611
000050 6e d4 f7 be 45 a0 53 be 9f 43 d3 be 4a 66 0e be
       -0.48404258 -0.20666607 -0.41262528 -0.13906208
000060 92 94 00 3e ec 9c a3 be d6 68 a4 3e da 16 c6 bc
       0.12556675 -0.3195566 0.32111233 -0.024180818
000070 db 3b 58 be fa b5 b3 bb 61 94 e0 3e 73 18 d5 3e
       -0.21116583 -0.00548434 0.43863204 0.41620216

inc.attention.1.pa.0.weight f4 [4, 32, 1, 1]
000000 f8 8c 2f be d2 2e 31 bd 50 5d fa 3e b8 04 ac 3d
       -0.17143619 -0.043257542 0.48899317 0.083993375
000010 fa 90 fa bd 10 47 f6 bc ef 44 ef 3e cc 3d 2e bf
       -0.12234683 -0.030063182 0.4673228 -0.68063045
000020 3f 66 47 3d ba 36 13 be 50 c2 f2 bc 38 62 b8 be
       0.048681494 -0.14376345 -0.029633671 -0.36012435
000030 b8 49 b3 3e f3 90 12 3e 18 4a 62 be 03 50 e6 be
       0.3501718 0.14313106 -0.22098577 -0.4498292
000040 64 1f 05 3e 7d a1 34 be 3b 0c 4d bd 54 b1 fd bd
       0.13000256 -0.17639728 -0.050060492 -0.12387338
000050 b4 d0 f8 3e 2a 7b 04 be 4c bb 7e 3e 84 94 0e bf
       0.48596728 -0.12937608 0.24876136 -0.55695367
000060 96 26 a7 3c d5 be fd bd b5 37 35 bc 25 d7 f1 3d
       0.020404141 -0.12389914 -0.011060645 0.11808614
000070 1f 65 ff be 4e 49 21 bd e1 86 dd bb f7 b9 57 be
       -0.49881837 -0.03937655 -0.0067604636 -0.21067034
000080 b5 d8 9f be 14 f1 24 be 51 b4 ff 3e 7f 9b 06 3d
       -0.31220022 -0.16107589 0.49942258 0.032863136
000090 ad d4 d8 3d 14 c1 94 bc 96 4a db 3e 78 38 11 3e
       0.1058744 -0.018158473 0.42830342 0.14181697
0000a0 59 f9 fe bc d9 06 ee 3d 99 16 62 be b9 8d 0e bf
       -0.031124758 0.116224 -0.22078933 -0.55685
0000b0 39 4f ae 3c b1 53 49 3e a9 f3 81 be e9 6d 86 bd
       0.02127801 0.19660832 -0.2538121 -0.065639324
0000c0 4b e3 cc be e7 b6 2b 3e b5 86 0a 3e 04 82 f4 3d
       -0.4001716 0.1676899 0.13527949 0.11938861
0000d0 5f 0e 35 3e 03 c6 62 be 78 75 f3 3e 61 06 7e be
       0.17681263 -0.22145848 0.4755056 -0.24807121
0000e0 3e e8 20 3c c3 95 5a be 3f a1 ac 3d 4d ec cf bd
       0.009820996 -0.21346192 0.08429193 -0.10152493
0000f0 7a fc f6 3e ab 0d 02 3e 7e 44 21 be ef d6 48 3e
       0.482395 0.12700526 -0.15748784 0.1961324
000100 a8 54 06 bc b3 14 f8 3d 16 de d5 3d 74 52 e6 bd
       -0.008198895 0.12113323 0.1044275 -0.112461954
000110 4e 89 e2 bd dc dc 10 3e 6e 3e 0e 3e 15 52 9c bd
       -0.11061345 0.14146751 0.13891003 -0.076328434
000120 ac 1f b7 be 92 e1 5d 3e a4 c8 17 3f 40 b6 58 3e
       -0.3576635 0.2166808 0.5929053 0.21163273
000130 6c b2 21 3d 09 2b dc bc d9 24 cb bf ae f9 6f 3f
       0.039476797 -0.02687599 -1.587062 0.93740356
000140 03 24 07 bf 7b de 3b bf 61 d7 99 3e da 00 73 bb
       -0.52789325 -0.73386353 0.30047134 -0.0037079365
000150 14 07 3f be 1b 58 49 be b4 ef 99 bd 9e af 3d be
       -0.18655044 -0.19662516 -0.07516423 -0.18524024
000160 d7 5b 50 3e 37 b9 89 3e fe 4b 86 3d 7e 52 b4 3e
       0.20347534 0.2689912 0.06557463 0.35219187
000170 61 52 02 3e 37 a9 26 be 80 3e fa bd 09 27 58 3e
       0.12726738 -0.16275488 -0.12218952 0.2110864
000180 e0 e8 fc be f0 2b ea bd 8f b5 f2 3d b1 42 61 bb
       -0.4939642 -0.11434162 0.11851036 -0.0034372027
000190 4a a5 c5 3d 03 fc 05 bd 98 5c f0 be e5 11 98 bd
       0.09650667 -0.03271104 -0.46945643 -0.07425288
0001a0 26 96 56 3b a2 61 09 3e 9f 16 19 bf 2e 15 8c 3e
       0.0032743304 0.1341615 -0.5980014 0.2735991
0001b0 c3 97 da 3d 6c 11 ee 3d d6 9f 52 bc 96 8a 16 be
       0.106734775 0.11624417 -0.012855491 -0.14701304
0001c0 df 4b 33 3e e6 73 a8 bb e4 d4 96 3e d8 70 fe bd
       0.17509411 -0.0051407693 0.29459298 -0.12423867
0001d0 46 6c 7e 3b 9b da 96 be 55 d2 46 3e e7 bf 85 be
       0.003882186 -0.29463658 0.19416173 -0.26122972
0001e0 df 98 c3 bd 5c 81 bf be c1 db fd ba fe 2c 39 bd
       -0.09550642 -0.3740338 -0.001936786 -0.045208924
0001f0 ca 8f 03 3f 1d 94 47 3d 8a 28 3e 3d 3e 63 3c 3d
       0.5139128 0.048725236 0.04642538 0.045993082

inc.attention.1.pa.0.bias f4 [4]
000000 c9 5f cb 3e 11 dd 2f 3f 77 94 c1 be 1d 0e e9 3e
       0.39721516 0.68696696 -0.37808582 0.4551858

inc.attention.1.pa.2.weight f4 [1, 4, 1, 1]
000000 f0 f1 d9 be 99 f3 32 bf 9e 5b c5 be 88 4a ff be
       -0.42567396 -0.6990295 -0.3854646 -0.4986155

down1.down.maxpool_conv.1.conv.0.weight f4 [64, 32, 3, 3]
000000 0f 77 60 3b b1 02 af bb c1 ac a3 3c 7e 6d 76 3c
       0.0034250652 -0.005340897 0.019979836 0.015040753
000010 0c e0 c9 3c e2 dc 87 bd 1e 39 45 bc 2e e0 3e 3c
       0.024642967 -0.06633927 -0.012037544 0.011650128
000020 30 b4 52 bd 6c 2f e0 3c ce 4b 4b bd 91 29 8f 3c
       -0.05144137 0.027366363 -0.04963284 0.017475875
000030 31 b9 10 3d de bd 25 3d 87 b0 f3 bc 9c df a0 bc
       0.035332862 0.040464275 -0.02974726 -0.019637875
000040 c9 f0 38 3d fb 6b 98 3b 87 04 37 3d 55 45 ae bb
       0.045151506 0.004651544 0.044682052 -0.0053183236
000050 25 0d 72 bb e3 13 35 3d 84 8e 3d bd 39 5f 23 3c
       -0.0036934104 0.04420842 -0.04627849 0.009971433
000060 4e b7 39 bd 8e a7 6a 3b af b6 bd 3c a5 09 29 3d
       -0.04534083 0.0035805437 0.0231584 0.041268963
000070 b6 b9 b1 bc 74 3c 06 bd 3f e5 01 3d d0 bd 63 bd
       -0.021695 -0.032772496 0.031712767 -0.05560094
000080 97 dc c2 bc 38 eb 98 bd 22 23 78 3c 34 a1 58 bd
       -0.023786826 -0.074667394 0.015145095 -0.05288811
000090 e2 51 6d bd cb 33 e9 bc f8 2b 83 3c 9a 2c 96 bc
       -0.057939418 -0.02846708 0.016012177 -0.018331815
0000a0 e5 d8 49 3d 0c 74 6d bd 38 e8 56 bd c0 f3 a6 bc
       0.049279112 -0.057972 -0.052467555 -0.020379901
0000b0 fe 6a 66 bd 90 41 f7 bc bb 7d c1 3c 84 44 85 bc
       -0.05625438 -0.03018263 0.023619523 -0.016268022
0000c0 80 e9 51 3d a5 41 a8 ba 66 19 6a bd af 58 af 3c
       0.051248074 -0.0012836946 -0.057153128 0.021404592
0000d0 e7 36 68 3d 37 46 2c 3d 9f 77 0d bd 8e 80 8a bc
       0.056692984 0.04205915 -0.034537908 -0.016907003
0000e0 4e 4b b9 bc fa ef 5f bd 3d 1d bb bc 07 be c0 bc
       -0.022618916 -0.05467222 -0.02284109 -0.023528112
0000f0 22 8c 4c bb 76 52 62 3d 4b ed d4 3c 6c 62 d6 3b
       -0.0031211455 0.055254422 0.025992056 0.0065424945
000100 d9 3d 16 3d ea 28 06 39 1f f5 05 bb 61 41 3f 3d
       0.036680076 0.00012794478 -0.0020440293 0.04669321
000110 37 1f 12 bd 01 fe a2 bc a4 1c 8a bc 15 5f 47 3d
       -0.0356743 -0.01989651 -0.01685936 0.04867466
000120 6a f2 d2 3c 10 8a 82 3b dc d4 c4 bc 90 19 11 bc
       0.025750358 0.0039837435 -0.02402728 -0.008856192
000130 6b ce 6d bc 6d e4 58 3c 91 cd 12 3c ae 04 04 bd
       -0.014514546 0.013238055 0.008960144 -0.032231025
000140 62 19 10 3d f6 4a e3 3b fc 3f d6 bc 3f 3c d9 3b
       0.035180457 0.0069364263 -0.026153557 0.0066294963
000150 1d 6a 67 bd 79 90 02 bd a4 c7 eb 3c 51 b9 19 bd
       -0.056497682 -0.03187606 0.02878172 -0.037530247
000160 e2 fc be 3c 19 50 f0 bc c9 e9 59 3d 2b 74 55 3d
       0.023313943 -0.029335069 0.05320147 0.05211274
000170 3e ac 57 bd bd 83 46 bd d1 3f e0 3c 29 0a 5f 3d
       -0.052654497 -0.04846548 0.02737418 0.05445305
000180 ae 94 36 bd 29 3c 64 3d 0b ee 69 3d b6 8f 5d bb
       -0.044575386 0.055721436 0.05711178 -0.0033807582
000190 93 af 25 3d 84 e1 7b 3c ee 97 46 3d 57 a2 20 bd
       0.040450644 0.015373591 0.048484735 -0.03921732
0001a0 1f ad 70 3c 1e eb d0 3c 82 4b 1b 3d 53 1c b4 bb
       0.014689713 0.025502738 0.037913807 -0.0054965406
0001b0 76 e9 7a bd 5e 92 4b bd 45 d3 6d bb 65 a8 13 3c
       -0.061257802 -0.049700134 -0.0036289257 0.009012316
0001c0 9c 3e d8 3c bd b7 3d 3d de 4a b5 bc c2 c2 69 bd
       0.026397042 0.046317805 -0.022130426 -0.0570705
0001d0 68 59 6a 3c 22 fc 3d 3d 70 81 49 3d 63 74 12 bd
       0.014303543 0.04638303 0.049195707 -0.035755526
0001e0 46 04 02 3c 91 2b 03 3d 61 13 14 3d 88 cc a2 3c
       0.007935589 0.03202397 0.036151294 0.019872919
0001f0 0d c3 25 3d ac e1 3f 3d 9c d0 cc bd d3 1a 2f bd
       0.040469218 0.046846077 -0.100007266 -0.04275019
000200 ad 0f 13 bd 4d 79 7a bd a4 a2 23 bd 61 66 09 bd
       -0.03590362 -0.061150838 -0.039950028 -0.0335449
000210 ab b2 4b bd 8d d7 bd bb 43 ad 1e bd b0 ce ef bc
       -0.049730938 -0.005793518 -0.038739454 -0.029273361
000220 c6 b5 8b bc 28 ce 65 bc b0 07 30 3d 0e a8 75 bc
       -0.01705445 -0.014026202 0.04297608 -0.014993681
000230 f9 52 c3 3c cc 16 e8 bb 2b a1 6d bd 49 63 d3 3c
       0.023843275 -0.0070827957 -0.05801503 0.025804179
000240 41 66 17 bd ca 27 5a 3d db 64 d5 3c 57 f4 ff bc
       -0.03696275 0.053260602 0.026049068 -0.03124444
000250 ef c0 d5 bc 94 21 0b bd 7a cf c2 bb 5c bc 6e bd
       -0.026092974 -0.03396757 -0.0059451433 -0.058285102
000260 3c 05 00 bd 08 5d 4b bd 48 51 c0 bc bd c3 06 bd
       -0.031254992 -0.04964927 -0.023476258 -0.032901514
000270 56 71 66 3d 00 27 bf 3c e0 75 b9 3c 26 eb d3 bc
       0.05626043 0.023334026 0.022639215 -0.025868963
000280 49 cb 18 3d 24 f2 27 3d 4d 5e dd bd 20 45 f4 bc
       0.037303243 0.041002408 -0.10809002 -0.029818118
000290 17 04 c3 bd 8f b9 18 bc 4a 92 91 bc e4 05 0b bd
       -0.095222645 -0.009321584 -0.017769951 -0.033941165
0002a0 2e 3f 48 bd 35 15 bc bd ee 0e 32 bd 77 ed ac 3c
       -0.048888378 -0.091837324 -0.04347127 0.021109326
0002b0 95 34 2e bd 6d ee 25 3d 17 cf 35 bc cd 79 ef bc
       -0.042530615 0.040510584 -0.011096737 -0.029232884
0002c0 bd 5f 54 bd 41 f5 e5 bc cd 57 d5 3b 48 8d ab bb
       -0.051849116 -0.028071048 0.006510711 -0.005235348
0002d0 ac f4 60 bd a5 67 4b bd 39 0a dc bc fc c5 19 bc
       -0.054920837 -0.04965939 -0.026860343 -0.009385582
0002e0 0d a9 3c bc 00 c8 78 bc 9e a9 d2 3c 07 4d 5a 3d
       -0.011514914 -0.0151844025 0.025715645 0.053296115
0002f0 e3 08 0a bd 93 39 fb ba c3 f8 08 bd 60 52 86 3c
       -0.03369988 -0.0019166939 -0.033440363 0.016396701
000300 ee 44 28 bc e0 fe 48 bd a6 c7 9a bc 51 5e 61 bd
       -0.01027034 -0.049071193 -0.018894028 -0.055021588
000310 34 93 d3 3c db d8 49 bd 2b db 44 3d d2 42 d3 3c
       0.025827028 -0.049279075 0.048060577 0.025788698
000320 f6 44 23 bd de 1a 38 bd e0 1c 7c bd 3b a7 b6 bc
       -0.03986069 -0.044947498 -0.061550975 -0.022296539
000330 1f 61 41 bc 58 eb 2d 3d 3d e9 a5 bb 12 fb 9f bc
       -0.011802941 0.04246077 -0.0050632046 -0.0195289
000340 ea c9 38 bd c8 6c 75 bd 55 40 7a bd 47 63 b1 3c
       -0.045114435 -0.059918195 -0.061096508 0.021653784
000350 2f b6 dc bc 53 d6 a8 bc 4c d6 dc bc e5 25 4f bd
       -0.02694234 -0.02061001 -0.026957653 -0.05057325
000360 23 5f 58 3d 85 4a 6e bd 53 e4 c3 bc 2d ed d5 bc
       0.052825104 -0.058176536 -0.023912584 -0.02611407
000370 9d fc 43 bd 0e 3d 74 3c c9 0c 05 bd 99 e6 3a 3d
       -0.047848333 0.014907135 -0.032482896 0.04563007
000380 2b 64 f9 3c b9 6f 8e bd 27 dc a1 bd b3 0c ab bd
       0.030443272 -0.06954903 -0.07903319 -0.083520316
000390 b5 51 1e 3d c5 14 c9 bb ed aa c8 3c 75 3b 2e 3d
       0.03865214 -0.006136509 0.024495566 0.04253717
0003a0 89 ab 14 3d 4b 09 33 3d e0 76 ab bc 46 f8 87 3a
       0.0362964 0.043710034 -0.020930707 0.0010373674
0003b0 c8 16 26 3d a6 7b 69 3d 3c d9 a2 bc 42 d4 55 3d
       0.04054907 0.057002686 -0.019878976 0.052204378
0003c0 0d 12 a2 bb 89 d1 0d bd 16 46 bf 3c 40 31 06 3d
       -0.0049459995 -0.034623656 0.02334885 0.032761812
0003d0 12 d7 13 bc e1 ea 1f bd b5 64 89 bc f1 eb 17 3c
       -0.009023445 -0.039042357 -0.016771654 0.009272561
0003e0 6a 26 ad 3c d7 d0 c1 bb 9a b4 87 bd 6e 7f 2d 3c
       0.021136481 -0.005914788 -0.06626244 0.010589464
0003f0 20 41 bf bd 18 4d 2a 3b d6 bc c4 bd 7e a2 93 bd
       -0.093385935 0.0025985893 -0.0960633 -0.07208727

down1.down.maxpool_conv.1.conv.0.bias f4 [64]
000000 f3 f6 13 bd 04 df 02 bd fe 70 bf 38 c0 06 5c bc
       -0.03612418 -0.031950966 9.128636e-05 -0.013429344
000010 54 87 77 bd ad a7 a0 bd 28 16 c7 bc cf b7 0c 3c
       -0.060431793 -0.078444816 -0.024302557 0.008588745
000020 00 48 08 3d ce 0f 85 3d 03 b6 84 bd 5a fd 6e 3b
       0.03327179 0.06497155 -0.064800285 0.0036466927
000030 27 91 47 bd f7 6a 07 bd e9 b0 ae 3a 3c 09 98 bc
       -0.048722412 -0.033060994 0.001332787 -0.01855909
000040 c4 e3 ef bc df f8 1b bd 82 cc fa bc 33 d7 a7 3d
       -0.029283412 -0.03807914 -0.030615095 0.08195343
000050 67 0b 4b 3b ce 65 c3 bc 38 c0 5a 3c 77 9f 3c bd
       0.0030982138 -0.023852255 0.013351493 -0.046050515
000060 8b b5 ad bb f6 cb 07 3d 13 35 41 bd ec c5 8a bd
       -0.0053011826 0.033153497 -0.047169756 -0.06776032
000070 a0 fa 16 bd a7 76 c2 bb 49 59 8b bd b4 57 ba bc
       -0.03686011 -0.0059345546 -0.06804139 -0.022746898
000080 e5 d9 70 bd c6 be 6e bd c9 2e 7d bd 89 ab 53 bb
       -0.05880155 -0.058287404 -0.061812196 -0.0032298288
000090 35 1e 28 3d 5a cf 69 3c a2 da 9b bd b2 8d b7 bc
       0.041044433 0.014270628 -0.0761006 -0.022406433
0000a0 28 22 a7 bb ee 6f 23 bd 27 29 4f bd 12 99 06 3d
       -0.0051005073 -0.039901666 -0.050576355 0.032860823
0000b0 25 35 80 bb b9 66 bc bc 41 a5 45 3c 51 85 70 bc
       -0.0039125853 -0.0229982 0.012063325 -0.014680223
0000c0 da 86 fc b9 d3 81 46 3d 85 49 27 bb 2a df 7d bd
       -0.00048165658 0.048463654 -0.0025525999 -0.061980404
0000d0 51 57 75 3b 90 42 06 bd 4b e9 18 39 da 81 30 bd
       0.0037436078 -0.032778323 0.00014582758 -0.043092586
0000e0 28 7b 2c bd d1 59 52 bc 58 a8 c4 bc 21 c2 2f bd
       -0.04210964 -0.012838797 -0.024006054 -0.042909745
0000f0 a2 aa d4 bb 12 c9 07 bc dc 08 a9 bb 71 12 7a bc
       -0.0064900676 -0.008287685 -0.005158527 -0.015263186

down1.down.maxpool_conv.1.conv.3.weight f4 [64, 64, 3, 3]
000000 db f3 0f bc 90 4e d7 bc bb f5 57 3c 23 15 e0 3c
       -0.008786167 -0.026282579 0.013181145 0.027353829
000010 a0 6e 60 3c b6 26 a3 3c 86 06 e6 bc 7b 9d ed 3c
       0.01369825 0.01991592 -0.028079282 0.029005757
000020 73 44 8a 3c 80 15 24 3c 94 e8 0e 3d 08 6f a5 3c
       0.016878342 0.010014892 0.034889773 0.020194545
000030 7b 51 65 bc 3b ac 71 3c 9b 28 1d bc 9f a3 20 3d
       -0.013996477 0.014750536 -0.009592201 0.03921854
000040 d0 29 76 3c eb 48 6b bc f6 44 4e 3c 36 a6 8f 3c
       0.015024617 -0.014360647 0.012589684 0.01753531
000050 36 b5 b9 bc 6c 0e 08 bd c8 5a ea bc 53 3c ca 3c
       -0.022669416 -0.03321688 -0.028607741 0.024686968
000060 56 08 31 ba c0 a1 02 3c e3 bb 0b bd bb 77 bb 3c
       -0.00067532563 0.0079731345 -0.03411473 0.02288424
000070 96 6a d1 3c 3c 85 00 3d 00 98 d0 38 20 74 ec bb
       0.02556352 0.031377062 9.946525e-05 -0.0072159916
000080 68 e7 1b bd 16 fe 08 bd 30 a2 ed 3c 6a 6e 11 3d
       -0.038062483 -0.03344544 0.029008001 0.03550569
000090 46 e9 1c bd ab 7b 1c 3c ab c6 5f ba 30 7c 16 bd
       -0.038308404 0.009550969 -0.0008536379 -0.03673953
0000a0 fe 79 fd 3c 8b c2 f5 3b 90 ac c3 3c f0 ff 8a 3c
       0.03094196 0.007499998 0.023885995 0.016967744
0000b0 00 fd ba bc ce 8b c3 3c 38 6f 01 bd f4 d5 14 3d
       -0.022825718 0.023870375 -0.031600207 0.036336854
0000c0 03 c7 84 3c b6 e4 2f bc d3 4d c1 3c 40 de 77 3c
       0.016208177 -0.010735681 0.02359668 0.015128672
0000d0 db da 56 bc b0 2c a9 bc 73 de 88 bc f6 20 1c 3c
       -0.013113703 -0.020651191 -0.016707635 0.009529343
0000e0 be d7 a3 3c 30 ba 7f bc a0 7a 05 bc b8 ff cc 3c
       0.020000335 -0.015608355 -0.008146912 0.02502428
0000f0 83 ce 26 bd f6 50 f3 3b db 55 d5 bc de e3 c9 bc
       -0.04072429 0.007425423 -0.026041916 -0.024644788
000100 66 f0 4c 3c c6 a0 94 3c 3b 09 e7 bc 1e e2 8a 3c
       0.012508487 0.018143069 -0.028202644 0.016953524
000110 b6 88 c2 3c fb 27 9e bc 26 7b cd bc 92 17 0d 3d
       0.02374683 -0.019306174 -0.025083136 0.034446307
000120 d8 4d 09 bd a0 1e c9 3b d6 fc c5 3c 76 06 73 3c
       -0.033521503 0.006137684 0.024168413 0.014833083
000130 a6 6b ae bc 1f 03 06 bd 13 1d df bc 96 23 63 bc
       -0.021291565 -0.03271782 -0.027235543 -0.013863465
000140 ab d0 72 3a 3e 5c b9 3c 1b c6 31 bc f8 1a 93 3c
       0.00092626613 0.022626992 -0.010850455 0.017957196
000150 43 23 c9 bc 6c 42 04 bd 08 c2 20 3d 6b 87 18 bc
       -0.024552947 -0.032289907 0.039247543 -0.00930963
000160 8c 8d 23 bd d8 10 f5 bc 0b f9 d3 bb 63 5e d1 3c
       -0.03992991 -0.029915258 -0.006468897 0.025557702
000170 d3 17 ee 3c 60 59 6d bc d0 07 21 3c a3 2a 1f 3d
       0.029064095 -0.014486641 0.009828523 0.03885902
000180 f6 16 01 bd 56 e1 a7 3b 3b 65 1a 3c 98 29 90 bc
       -0.031516038 0.0051232977 0.009423549 -0.017597958
000190 d6 ba a4 3c 2e b7 d7 bc 3b 6b 15 3d e0 9d ef bb
       0.020108622 -0.026332464 0.036479216 -0.0073125213
0001a0 23 17 ff bc 58 48 93 bc 9e a4 e0 3c ba 4a 0f 3d
       -0.031138962 -0.017978832 0.027422246 0.034983374
0001b0 23 7f 17 3d 1e e1 c1 3c f3 1a d5 3c 46 3c 50 bc
       0.03698648 0.023666915 0.026013827 -0.012709683
0001c0 84 eb 14 bd 56 94 0b bc e0 a7 32 bc ab f9 0f bc
       -0.036357418 -0.008519253 -0.010904282 -0.008787553
0001d0 fb 11 7f 3c c3 8a b0 3c 22 2c 04 3d 16 87 91 3c
       0.015568252 0.021550542 0.03226865 0.01776461
0001e0 a8 ed 9c bc ab cd 68 ba 00 43 14 3a 36 0d 02 3d
       -0.019156292 -0.00088807446 0.0005655736 0.03175088
0001f0 f6 e2 5c bc 80 95 4b 3c 48 5c 81 3c b6 58 83 3b
       -0.013481846 0.01242578 0.015791073 0.004008378
000200 7f ef 01 3d 7b 0b 21 bc e6 b4 1c bd ab c9 e0 bc
       0.031722542 -0.009829397 -0.038258456 -0.027439913
000210 be 87 93 3c 5a 12 09 bd 7c cd 1b bd 9e 6c e4 3c
       0.018009063 -0.033464767 -0.038037762 0.027883824
000220 52 10 0f 3d 14 58 1e bd 7e cb e5 bc a6 34 84 bc
       0.034927674 -0.038658217 -0.028051134 -0.016138386
000230 96 35 31 3b 46 ff cc 3c d6 e9 1c bd 7b fd f6 bc
       0.0027039996 0.025024068 -0.03830894 -0.030150166
000240 c7 09 15 bd c3 a9 c4 bc ce 6e 1b bd 70 72 e5 3c
       -0.036386278 -0.02400673 -0.03794747 0.02800867
000250 33 26 fd bc 00 03 f5 bc ec 34 20 3d 10 e2 d2 3c
       -0.030902004 -0.029908657 0.03911297 0.02574256
000260 fb 45 fd bc 40 09 a6 bb 0b 3a e7 bc 90 e4 94 bc
       -0.030917158 -0.0050670207 -0.02822592 -0.018175393
000270 80 2d c9 3a f6 e3 1b 3c fe e5 8e 3c 3a fa 1c 3d
       0.0015348643 0.009514799 0.017443653 0.038324572
000280 f6 94 81 3c 40 15 72 bc 80 fc 05 bd 23 90 ad bc
       0.0158181 -0.014775574 -0.032711506 -0.021186894
000290 ae 4a f1 bc d8 4d a1 3c 00 85 ac ba b2 b8 11 bd
       -0.029454555 0.01969044 -0.0013162196 -0.03557653
0002a0 67 c1 1b 3d 90 ef 28 bd 16 00 03 bd ab 1d 99 bc
       0.03802624 -0.04124409 -0.031982504 -0.018690905
0002b0 3e 8a 0c bd e0 76 d5 bc 3b 9e d8 bc d0 e3 c6 bc
       -0.034311526 -0.02605766 -0.026442638 -0.024278551
0002c0 53 c2 cf bc de b6 8f 3c c3 3b fa bc 24 a7 24 bd
       -0.025361216 0.017543253 -0.030546075 -0.04019846
0002d0 db 4c 1a bd 24 15 24 bd a6 b2 62 bc 4b 9b da 3c
       -0.03767095 -0.040059224 -0.013836538 0.026685378
0002e0 63 ca fd 3c 40 49 25 3d fe 11 ec bc f8 c4 8b 3c
       0.030980295 0.04035306 -0.028817173 0.017061695
0002f0 f6 50 28 bc 56 6b 41 ba 9f 2f 13 3d 46 de a1 bc
       -0.010273209 -0.000737836 0.035934087 -0.019759309
000300 2b bf 89 3a 28 be 8d 3c e0 33 88 3b 6b 55 12 3c
       0.0010509243 0.017302588 0.0041565746 0.008931498
000310 de 62 e1 bc 76 a1 e7 bb a0 db ab bc 0b c9 b7 3b
       -0.027512964 -0.007068808 -0.020978749 0.005608683
000320 db de 14 bd b6 90 23 bd 56 45 bc ba 08 0b cc bc
       -0.036345344 -0.03993293 -0.0014363925 -0.024907604
000330 40 d2 36 bb 16 4d bd 3c 9b a2 ce 3c 1b 6c 3e 3c
       -0.0027896315 0.023108047 0.02522402 0.011622454
000340 eb d8 a9 3c 5b 7a 50 3c be aa 98 3c a0 09 a7 bb
       0.020733317 0.012724484 0.018636104 -0.005097583
000350 d6 28 89 bb 8b 50 81 3b a7 37 10 3d 70 06 11 3d
       -0.004185776 0.003946369 0.035209324 0.03540653
000360 6a 40 18 3d de 00 1e bd 7e d5 22 3d b0 d7 fb bc
       0.037170805 -0.038575046 0.039754383 -0.030742496
000370 40 0b ba bb 68 b8 f6 3c 36 f7 0f bd eb ca b4 3b
       -0.0056776106 0.030117229 -0.035147868 0.005517354
000380 d8 ba 94 3c 10 e9 ca bc a0 c6 08 bd 83 c2 f0 3c
       0.0181555 -0.024769336 -0.03339255 0.029389625
000390 66 96 28 bd 0b f2 fd 3c 18 3b 05 bd 56 7f e4 b9
       -0.041159056 0.030999204 -0.03252706 -0.00043582421
0003a0 2b 69 d9 3c 7f b8 0d bd c8 65 b6 bc 40 ac e4 3c
       0.026539406 -0.034599777 -0.02226533 0.027914166
0003b0 10 cc f1 3c a2 41 05 bd bb c5 b7 bc 7e 32 d1 3c
       0.02951625 -0.032533295 -0.022433152 0.025536772
0003c0 16 d4 79 3c 20 27 d3 3c 2b 62 c0 3a 10 6a 8c bc
       0.015248319 0.025775492 0.0014677694 -0.017140418
0003d0 f6 35 be bc 9e b8 d7 3c 4e 38 0a 3d 66 3a b0 3c
       -0.02321909 0.02633315 0.033745103 0.021512222
0003e0 f8 60 90 bc 40 8c 1f bc 90 57 45 bc 78 78 bb bc
       -0.017624363 -0.009738028 -0.012044802 -0.022884592
0003f0 36 c1 9a bb 7b 94 32 3c e3 73 a0 bc 3b 5e a4 3c
       -0.0047227396 0.010899658 -0.01958651 0.020064464

down1.down.maxpool_conv.1.conv.3.bias f4 [64]
000000 c6 1b dd bc d8 07 b3 bc c4 d3 76 bc b7 b9 3d bd
       -0.026990782 -0.021854326 -0.015065137 -0.04631969
000010 39 ce 8d bc e6 9d e7 3c c0 55 24 bb f7 32 d3 bc
       -0.017310249 0.028273534 -0.0025075525 -0.025781138
000020 ac 40 58 bc 53 0a ee bc 2f d5 ee bc 55 16 23 bb
       -0.013199013 -0.029057657 -0.029154388 -0.0024885137
000030 52 0f e4 3c 1a bf 92 3c 44 24 f8 3b 37 8e 21 bd
       0.027839337 0.01791339 0.0075726826 -0.039442267
000040 11 58 56 3c d9 f1 49 bd 48 c5 14 bc d7 c9 9f 3c
       0.01308252 -0.04930291 -0.009080239 0.019505424
000050 b8 d3 e2 bc 6e d8 f7 bc 71 22 3c 3b a3 58 a5 bc
       -0.027688846 -0.030254569 0.0028707052 -0.020183867
000060 eb a7 42 bc c8 70 22 3d 1d 02 dc bc 26 ca d5 3c
       -0.011880855 0.039658338 -0.026856476 0.026097368
000070 c1 6b d4 3b 27 7a e6 bb d1 e8 2a b8 e3 d8 04 bd
       0.006482572 -0.0070336047 -4.0747986e-05 -0.0324334
000080 d0 83 62 bd b6 18 2f bd eb 57 57 bb 0d 04 28 bd
       -0.055301487 -0.042748176 -0.00328588 -0.041019488
000090 b5 bc 3a bc 61 2c 72 bc c9 86 56 3c 9c d6 d8 bc
       -0.01139753 -0.014781089 0.013093659 -0.026469521
0000a0 c8 dc 8b bc 4b 6e 13 bd 7d 68 4a bc a8 82 f9 bb
       -0.01707305 -0.035993855 -0.0123540135 -0.0076144524
0000b0 ae 6f 8e 3c e0 2e a2 bc 51 88 6c 3c 63 c4 af bc
       0.017387237 -0.019797742 0.014436797 -0.02145595
0000c0 4c 06 1b bc 53 cf 13 bc bd 71 5a bc ad 11 0d bd
       -0.0094619505 -0.009021598 -0.013332781 -0.034440685
0000d0 16 9a 07 bc b0 20 6f 3c 5b 29 f0 bc 43 da 42 3d
       -0.008276483 0.014595196 -0.029316595 0.04757143
0000e0 ed 77 f1 3c 20 45 e0 bc b8 be 06 bd 69 53 31 bc
       0.02947613 -0.027376711 -0.032896727 -0.010823109
0000f0 93 1a 16 3d 1e d7 62 3b b4 fd 46 bd 34 42 0c bb
       0.036646437 0.0034613083 -0.048581794 -0.0021401765
